data/best_performed_model_pbt.pth (torch, 961419 bytes, 30 tensors)

encoder.0.weight f4 [256, 46]
0	0xbd91d0eb	-0.07119926
1	0xbe0149a5	-0.1262575
2	0x3d166874	0.036720708
3	0x3d69d7eb	0.05709068
4	0xbdbb85a2	-0.09156348
5	0xbc2d39b1	-0.010572837
6	0x3d6bfbcd	0.057613183
7	0x3d7d3ded	0.061826635
8	0x3d8daaeb	0.06917366
9	0x3dfeb08f	0.1243602
10	0x3d7f5eb4	0.062346175
11	0xbd9adfaa	-0.07562192
12	0x3a3e287a	0.0007253956
13	0xbd1b2181	-0.03787375
14	0x3c5679e3	0.0130905835
15	0x3d851cb7	0.064996175
16	0x3dbf791b	0.09349271
17	0xbd8f685d	-0.070023276
18	0x3d92711b	0.071504794
19	0xbde50dc8	-0.11184269
20	0xbd8fed39	-0.070276685
21	0xbbc66603	-0.006054641
22	0x3da3152f	0.07963025
23	0x3da8d0f3	0.08242979
24	0xbdf4e524	-0.119577676
25	0xbd807365	-0.0627201
26	0xbc99b458	-0.018762752
27	0xbd9f7589	-0.0778609
28	0xbd4be5df	-0.04977977
29	0xbce098a8	-0.027416542
30	0x3d389c0c	0.045070693
31	0x3d34f13f	0.044175383
32	0x3d413e37	0.047178473
33	0x38a284c8	7.7494944e-05
34	0x3cf379f9	0.029721247
35	0x3c96de05	0.018416414
36	0xbd4acbe6	-0.04951086
37	0xbd8680b7	-0.06567519
38	0x3d95ebef	0.073203914
39	0x3dbcad44	0.09212735
40	0xbd9eb8c1	-0.07750083
41	0x3e0047ba	0.12527362
42	0x3d7e4080	0.06207323
43	0xbdf00886	-0.11720376
44	0x3dc602c1	0.09668494
45	0x3d34da87	0.044153716
46	0x3d8a64e0	0.06757522
47	0x3dc1f73c	0.09470984
48	0xbe0ce371	-0.13758637
49	0x3dc6e152	0.09710945
50	0xbd14924d	-0.036272336
51	0x3cd63c20	0.026151717
52	0xbd051e5e	-0.032499664
53	0x3db69f8b	0.08917149
54	0xbdb22aab	-0.086995445
55	0x3d6bb885	0.05754902
56	0x3d791761	0.06081331
57	0xbe0c8d19	-0.137257
58	0xbd3c45bb	-0.045964938
59	0x3d1f7eb7	0.038939204
60	0x3d8da50c	0.06916246
61	0xbdde94aa	-0.10868199
62	0x3d0c1703	0.034201633
63	0x3d98d70c	0.07462892
64	0x3db802b6	0.08984892
65	0xbdb313d3	-0.087440155
66	0xbd6a070f	-0.057135638
67	0xbd63c42f	-0.055607017
68	0x3dd42215	0.10358063
69	0x3cc66015	0.024215737
70	0xbdd124ef	-0.10212123
71	0x3d1c9b5c	0.0382341
72	0xbc6f7533	-0.014615345
73	0xbe0affcc	-0.13574141
74	0x3d5b5787	0.05355027
75	0xbd937922	-0.072008386
76	0xbdcc0bf4	-0.099632174
77	0xbdab9116	-0.08377282
78	0x3d7760f4	0.060395196
79	0xbd397e59	-0.04528651
80	0xbcace263	-0.021104043
81	0x3c928786	0.017886888
82	0x3cbcb879	0.023037182
83	0x3d067af8	0.032832116
84	0xbccfb094	-0.025352754
85	0x3db5f62a	0.08884843
86	0xbd8a6c61	-0.06758953
87	0xbdd3a585	-0.10334305
88	0x3d4c18eb	0.04982845
89	0x3acee888	0.0015785852
90	0xbd0e3d82	-0.034726627
91	0x3dc88c18	0.09792346
92	0x3d90b144	0.07065061
93	0x3b2d44c1	0.0026438686
94	0xbd106282	-0.035250194
95	0xbd7807c7	-0.060554292
96	0xbcd35a5d	-0.025799925
97	0xbd8e2f7e	-0.06942652
98	0xbbca6b40	-0.006177336
99	0xbb87acd9	-0.004140478
100	0x3df06eab	0.11739858
101	0x3b95749b	0.0045610196
102	0xbd73ab83	-0.05948974
103	0x3cfa20e3	0.03053326
104	0x3d91a770	0.07112014
105	0x3c17febe	0.009277044
106	0xbdf925e2	-0.12165429
107	0x3c2824e9	0.010262706
108	0xbd842afa	-0.0645351
109	0x3c45d753	0.012075263
110	0x3cef31d3	0.029198563
111	0x3da68ba3	0.08132102
112	0xbdd78b54	-0.105246216
113	0x3dc0a743	0.09406903
114	0xbd9658ef	-0.073411815
115	0xbe011cc9	-0.12608637
116	0x3a85e996	0.0010216709
117	0xbcd0e63b	-0.025500407
118	0xbd2ff44a	-0.04295758
119	0x3db40b71	0.08791245
120	0xbda335f6	-0.079692766
121	0xbd26b64f	-0.040701207
122	0xbd92aba0	-0.07161641
123	0xbc8f8b3a	-0.017522443
124	0x3c6cab42	0.014445128
125	0x3d8de43c	0.06928298
126	0x3dbad36c	0.09122357
127	0xbc3e1d65	-0.011603688
128	0x3b8a257f	0.0042158957
129	0x3c93811a	0.018005896
130	0x3c0b246b	0.008492569
131	0x3d85ec91	0.06539262
132	0x3df5183e	0.119675145
133	0xbdcb5db9	-0.099299856
134	0x3d8a5aea	0.06755622
135	0x3d1ed4b9	0.038777087
136	0x3c4b888b	0.012422691
137	0x3c5f0bda	0.0136136655
138	0x3d69dbe0	0.057094455
139	0xbdb45f3e	-0.088072285
140	0x3d1df4e5	0.038563628
141	0x3caa18d7	0.020763798
142	0x3c23b284	0.009991292
143	0x3df1358b	0.11777791
144	0xbd201243	-0.039079916
145	0x3c38a08d	0.011268747
146	0x3de15d54	0.11004129
147	0x3c806e88	0.015677705
148	0x3d895124	0.067049295
149	0x3d1bb381	0.038012985
150	0xbcafa044	-0.021438725
151	0xbd80cba1	-0.06288839
152	0x3cf9532f	0.030435173
153	0xbcc229fe	-0.023701664
154	0x3da6ee12	0.08150877
155	0xbd687b65	-0.056758303
156	0xbcd4cb09	-0.025975721
157	0x3d930e4b	0.071804605
158	0xbddf2b0c	-0.108968824
159	0x3def650c	0.11689195
160	0xbdc34e3f	-0.09536409
161	0xbd7ed123	-0.062211167
162	0x3d82c21b	0.06384679
163	0x3d2cc5aa	0.042180695
164	0x3d556b63	0.052104365
165	0xbdc32042	-0.09527637
166	0x3bdcff64	0.006744312
167	0x3da63cd3	0.0811707
168	0x3d86954d	0.065714456
169	0xbdd1d8dc	-0.10246441
170	0x3a2668b4	0.00063479994
171	0xbd95b877	-0.073105745
172	0x3d02598b	0.031823676
173	0x3d9d6531	0.07685316
174	0xbd42b7e6	-0.04753866
175	0x3c9df2dd	0.019280845
176	0x3c60d5a3	0.01372281
177	0x3db775d3	0.0895802
178	0x3dbb3aff	0.09142112
179	0xbddc85e1	-0.10767723
180	0xbdf9589b	-0.12175103
181	0x3d0d5a7b	0.034510117
182	0x3dc5699c	0.09639284
183	0xbd93dbb7	-0.07219642
184	0x3da9c4f9	0.08289523
185	0xbdc24104	-0.09485057
186	0x3d98b8a4	0.074570924
187	0xbc59c302	-0.013291122
188	0x3d882ee3	0.06649568
189	0xbd7c1dc3	-0.06155182
190	0x3d547165	0.051865954
191	0x3ddb4e26	0.10708265
192	0x3c0d2874	0.008615602
193	0x3d8da990	0.06917107
194	0x3d9f6ea1	0.07784773
195	0x3dd6ec1a	0.104942515
196	0x3d6eebc2	0.058330305
197	0xbd31c4a1	-0.04340041
198	0x3dc50d3f	0.09621667
199	0x3dee6f59	0.11642332
200	0xbdaa6196	-0.08319394
201	0xbd6b8805	-0.057502765
202	0xbb7a5bf9	-0.0038201793
203	0xbdc1ea41	-0.094685085
204	0x3d04252a	0.032262005
205	0x3e091656	0.13387427
206	0xbc65e928	-0.01403264
207	0xbd98c43d	-0.074593045
208	0xbe06623e	-0.13123414
209	0x3d95dfeb	0.073180996
210	0xbc0e59af	-0.008688374
211	0xbc14cc78	-0.009081952
212	0xbdc81e9c	-0.09771463
213	0x3de93e4b	0.113888346
214	0xbdde05af	-0.10840928
215	0xbd183b61	-0.037166003
216	0xbd820740	-0.06349039
217	0x3ccba74d	0.024860049
218	0x3cd42726	0.025897574
219	0xbda105ee	-0.07862459
220	0xbd3ad83d	-0.045616377
221	0xbddc8aca	-0.107686594
222	0xbe085f50	-0.13317609
223	0x3c7405a4	0.014893923
224	0xbdb13c18	-0.0865404
225	0xbd83a0a9	-0.06427128
226	0x3d778a17	0.060434427
227	0xbd322335	-0.043490607
228	0x3d9c1510	0.07621205
229	0x3d80d7ef	0.06291186
230	0xbdc48f4b	-0.095976435
231	0x3dc93dd8	0.09826249
232	0xbda6438b	-0.081183515
233	0xbd9b87d3	-0.07594266
234	0x3d913ad9	0.070913024
235	0x3dd9369f	0.10606121
236	0xbd64e7f3	-0.055885267
237	0x3be3d991	0.006953426
238	0xbd965cbe	-0.07341908
239	0x3d8b579f	0.06803822
240	0xbd791348	-0.060809404
241	0xbd9b2578	-0.07575506
242	0x3c8130fb	0.015770426
243	0x3d945f7c	0.07244775
244	0xbd799003	-0.060928356
245	0xbcd4d615	-0.025980989
246	0xbda6c62f	-0.08143269
247	0x3d95bf51	0.07311881
248	0x3dbb1df7	0.09136575
249	0xbb94f509	-0.004545812
250	0xbc725eac	-0.014793079
251	0xbdd573eb	-0.104225
252	0xbc7cc2f4	-0.01542734
253	0x3dc13e64	0.09435728
254	0x3c325f1e	0.0108869355
255	0x3d292d0c	0.041302726

encoder.0.bias f4 [256]
0	0xbb80590e	-0.003916866
1	0x3dd0c327	0.10193472
2	0xbd90df65	-0.07073859
3	0x3d8df358	0.0693118
4	0x3d05e835	0.032692153
5	0x3d29877e	0.04138898
6	0xbe0678ff	-0.13132094
7	0x3dec2d9b	0.11532136
8	0xbd70951b	-0.058735948
9	0xbd48149a	-0.048847772
10	0x3c9ca72e	0.019122686
11	0x3dd18aa2	0.1023152
12	0xbdcb730f	-0.09934055
13	0xbdad4c33	-0.084617995
14	0xbc1a1594	-0.009404559
15	0xbd9ee2b1	-0.07758082
16	0x3bdfb745	0.0068272674
17	0x3bb9b522	0.0056673447
18	0x3e041049	0.12896837
19	0x3da5a445	0.080879726
20	0x3d2089ea	0.039194025
21	0xba0fe1cd	-0.0005488664
22	0x3c059d25	0.008155142
23	0xbdfa583d	-0.12223861
24	0x3de1ab76	0.11019032
25	0x3ca02ead	0.019553507
26	0x3db44301	0.088018425
27	0x3e02b7aa	0.12765375
28	0xbde8e61a	-0.113720134
29	0x3e0990b7	0.1343411
30	0x3e0560eb	0.13025253
31	0xbc54af36	-0.012981227
32	0xbdffe92c	-0.12495646
33	0xbdff4dbb	-0.12465998
34	0xbdd5e197	-0.104434185
35	0x3dbaa1fe	0.09112929
36	0x3ca64681	0.02029729
37	0xbde3f521	-0.11130739
38	0x3cd1855a	0.025576282
39	0xbd8cd9fc	-0.06877515
40	0xbc584a72	-0.013201343
41	0xbe0977f2	-0.13424662
42	0x3df4c024	0.119507104
43	0xbdb493bf	-0.08817243
44	0xbcaac9e0	-0.020848215
45	0xba8b9dc2	-0.0010651874
46	0x3d6dad0c	0.05802636
47	0xbd05a06a	-0.032623686
48	0xbc96d324	-0.018411227
49	0x3d244877	0.04010817
50	0xbc79679c	-0.015222456
51	0x3db80cf5	0.08986846
52	0xbd7ceb7e	-0.06174802
53	0xbdb6f1df	-0.08932852
54	0xbd982a97	-0.07429998
55	0xbd7041c4	-0.05865647
56	0xbc48fa8c	-0.012266766
57	0xbd8f050a	-0.06983383
58	0x3cff6496	0.031175893
59	0xbd92d3b4	-0.071692854
60	0xbc92b77e	-0.017909762
61	0x3d11935e	0.03554093
62	0xbd90ff51	-0.07079948
63	0x3df397b1	0.11894167
64	0xbd714e73	-0.058912706
65	0x3d48c0a5	0.049011845
66	0x3dd7bae7	0.10533696
67	0xbc05b717	-0.008161328
68	0x3dd76efb	0.10519215
69	0x3dd0d6e3	0.101972364
70	0x3cf7863c	0.030215375
71	0x3e01a5cd	0.12660904
72	0x3de0a509	0.10968978
73	0x3dfb20af	0.12262093
74	0x3d460582	0.048345096
75	0x3d437d4b	0.04772691
76	0xbcb4f540	-0.0220896
77	0x3dfc8778	0.12330526
78	0x3d791e3a	0.060819842
79	0xbda7cefc	-0.08193776
80	0x3d5d94e1	0.05409706
81	0x3d51a0c1	0.051178697
82	0xbe034348	-0.12818635
83	0xbdd168ed	-0.10225091
84	0x3de97a7e	0.11400317
85	0xbd4c69b3	-0.04990549
86	0x3cc05a5e	0.02348059
87	0x3d32b38a	0.043628253
88	0x3d4189c1	0.047250513
89	0xbdd3b14b	-0.1033655
90	0xbdae0804	-0.084976226
91	0x3d50658f	0.050878104
92	0x3c7b6756	0.015344461
93	0xbd99a7e0	-0.07502723
94	0x3de51ba1	0.111869104
95	0xbd5c6277	-0.05380484
96	0xbd02d9db	-0.031946044
97	0x3ba744b2	0.0051046247
98	0x3c8b336a	0.01699229
99	0x3c91ece4	0.017813154
100	0x3d6dcf27	0.058058884
101	0x3dec0876	0.11525051
102	0x3d834936	0.06410448
103	0x3d8afcdd	0.06786511
104	0xbd749af9	-0.059718106
105	0x3dbfdf5c	0.09368774
106	0xbdc8a68d	-0.09797392
107	0x3de46a9d	0.11153147
108	0x3c14bc5f	0.009078114
109	0x3cc5a862	0.024128143
110	0xbe022dca	-0.1271278
111	0x3dc153d2	0.094398156
112	0xbda5973d	-0.08085487
113	0xbdb2c5eb	-0.08729156
114	0xbd1369d3	-0.035989594
115	0x3cc58be3	0.024114555
116	0xbdd80bee	-0.105491504
117	0x3d47c2da	0.04876981
118	0xbded6bcc	-0.11592826
119	0x3d9db5ee	0.07700716
120	0xbd9a2184	-0.07525924
121	0xbdf63d7e	-0.120234475
122	0xbd6f3244	-0.058397546
123	0xbc84475f	-0.016147314
124	0x3d99d858	0.075119674
125	0x3e0b53b0	0.13606143
126	0x3de4caaa	0.111714676
127	0x3d4245b9	0.047429774
128	0x3d5b3327	0.05351558
129	0x3c9228c4	0.017841704
130	0xbd8e7e08	-0.06957632
131	0xbafd5f05	-0.0019330686
132	0xbd197ee5	-0.03747453
133	0x3c865f26	0.016402792
134	0xbb11bde6	-0.0022238432
135	0xbde4d6ae	-0.111737594
136	0xbc3a70cc	-0.011379432
137	0x3dbc1d82	0.09185316
138	0xbdf8f854	-0.1215674
139	0xbd3bc529	-0.045842323
140	0xbddcc7a4	-0.10780266
141	0x3dd5b781	0.10435391
142	0xbd44e9e6	-0.048074625
143	0x3d7a6268	0.061129004
144	0x3dd40cff	0.10354041
145	0xbb70af14	-0.0036725448
146	0x3da040f5	0.078248896
147	0xbdf87c98	-0.12133139
148	0xbd5b4c90	-0.053539813
149	0xbe011b9f	-0.12608193
150	0xbdfcc5d6	-0.12342422
151	0x3d586aef	0.052836355
152	0x3d43b7f6	0.04778286
153	0x3dbce609	0.09223563
154	0xbddfbdb7	-0.10924857
155	0x3daef7aa	0.08543332
156	0x3bce9022	0.006303803
157	0x3dd94603	0.10609057
158	0xbd97eeda	-0.07418604
159	0x3e0190d6	0.12652907
160	0xbd71763a	-0.05895064
161	0x3d096f33	0.033553313
162	0xbdb1df38	-0.08685154
163	0xbb1267d2	-0.0022339714
164	0xbd5fea4a	-0.054666795
165	0xbc9e1b27	-0.019300057
166	0xbda93a98	-0.08263129
167	0xbd2ac3f0	-0.041690767
168	0xbdf8633d	-0.12128303
169	0x3d59df3e	0.053191416
170	0xbd9791dc	-0.07400867
171	0xbd3ad1c0	-0.04561019
172	0xbdd2de96	-0.10296361
173	0xbd9d1754	-0.07670465
174	0xbe0834e9	-0.13301434
175	0x3e0142c9	0.12623133
176	0xbd1705cc	-0.036870763
177	0xbce78abc	-0.028264396
178	0xbd827979	-0.06370825
179	0x3dbcd5df	0.0922048
180	0xbdef2d4e	-0.11678563
181	0x3c49c580	0.012315154
182	0x3db22d01	0.0869999
183	0xbcda1053	-0.026619112
184	0xbba17434	-0.0049271826
185	0xbd968325	-0.073492326
186	0x3dda6350	0.106634736
187	0x3d6f62c8	0.058443815
188	0x3d32156f	0.043477472
189	0x3dd5cd09	0.10439498
190	0xbdf82f32	-0.12118377
191	0xbdd12d33	-0.10213699
192	0x3d036448	0.032078058
193	0x3d5e53af	0.054279026
194	0x3daeca9a	0.08534737
195	0x3dd7dbbf	0.1053996
196	0x3d80f656	0.06296985
197	0xbd5877a6	-0.05284848
198	0x3dd2a68e	0.10285674
199	0x3cd6ffdc	0.02624505
200	0xbd9f1539	-0.0776772
201	0xbd255422	-0.04036344
202	0xbdf66113	-0.12030234
203	0xbd75aa69	-0.05997697
204	0x3d84ab80	0.064780235
205	0x3db3f757	0.08787411
206	0xbddcc1df	-0.107791655
207	0xbd8c5e8b	-0.0685397
208	0xbd9ffd3e	-0.07811974
209	0xbc342ec9	-0.010997483
210	0xbdfaea2d	-0.12251697
211	0x3d2a5a26	0.04158988
212	0x3dd60eeb	0.10452064
213	0x3da49b85	0.080374755
214	0xbddd55ad	-0.10807357
215	0x3d14a10e	0.036286406
216	0x3cf016ae	0.02930769
217	0x3de653d5	0.112464584
218	0x3dd42827	0.10359221
219	0x3df0cec8	0.117581904
220	0x3def2141	0.116762646
221	0x3d362e56	0.044477783
222	0xbcc607bb	-0.024173608
223	0x3dba1116	0.0908529
224	0xbdd034cb	-0.101663195
225	0xbb626cb9	-0.0034549667
226	0x3db5d885	0.088791884
227	0xbde7b8bf	-0.113145344
228	0xbd8a9e48	-0.06768471
229	0xbde04f71	-0.10952652
230	0xbd5e2ea6	-0.054243706
231	0x3da06a08	0.07832724
232	0x3d34b941	0.044121984
233	0x3d87032f	0.06592404
234	0x3d2db8aa	0.042412437
235	0x3df94a4a	0.12172373
236	0xbd2fcfe4	-0.04292287
237	0xbbbf3ca5	-0.005836087
238	0x3dd66664	0.10468748
239	0xbdfd923e	-0.12381409
240	0x3d70f7d4	0.058830097
241	0x3df86134	0.12127915
242	0x3d53ccc9	0.05170897
243	0x3dbfc300	0.09363365
244	0xbd33d50b	-0.043904345
245	0x3de0d716	0.109785244
246	0xbc11d6f5	-0.008901347
247	0xbd3b1fa3	-0.045684468
248	0xbd3467ee	-0.044044428
249	0xbd38190d	-0.044945765
250	0x3d5dcf8e	0.054153018
251	0xbde7474c	-0.11292896
252	0xbd13a7d7	-0.036048736
253	0x3d5a09eb	0.053232115
254	0x3d6ed52e	0.058308773
255	0xbda24ae3	-0.0792444

encoder.2.weight f4 [256]
0	0x3f58f210	0.8474436
1	0x3f5a1191	0.85183054
2	0x3f473018	0.7780776
3	0x3f485f22	0.7827016
4	0x3f5b6aa8	0.8570962
5	0x3f62c66e	0.8858403
6	0x3f5b9cd8	0.857862
7	0x3f4ebada	0.8075386
8	0x3f4f1fd5	0.80907947
9	0x3f53c356	0.82719934
10	0x3f4a53b4	0.7903397
11	0x3f4ad9b9	0.7923847
12	0x3f5db840	0.8660927
13	0x3f60d9cb	0.87832326
14	0x3f4c7e57	0.7988028
15	0x3f45a3f9	0.7720333
16	0x3f576d97	0.84151596
17	0x3f5a22bf	0.8520927
18	0x3f56268f	0.83652586
19	0x3f673ed8	0.90330267
20	0x3f593791	0.8485041
21	0x3f3703ce	0.7149018
22	0x3f69f863	0.91394633
23	0x3f5ffb79	0.8749309
24	0x3f53f908	0.82801867
25	0x3f50f217	0.816194
26	0x3f55b500	0.8347931
27	0x3f54dda0	0.8315067
28	0x3f54961c	0.8304155
29	0x3f56dd0a	0.8393103
30	0x3f59e29e	0.85111415
31	0x3f4b1e6b	0.7934329
32	0x3f5bef32	0.8591186
33	0x3f459e15	0.7719434
34	0x3f416baf	0.7555494
35	0x3f4d86e9	0.8028398
36	0x3f4404c1	0.76569754
37	0x3f5f968b	0.87339085
38	0x3f5b6e7c	0.8571546
39	0x3f5620ed	0.8364399
40	0x3f5eac39	0.8698154
41	0x3f5df05a	0.8669487
42	0x3f45c817	0.7725844
43	0x3f41c5bd	0.7569235
44	0x3f5b4351	0.8564959
45	0x3f60e496	0.87848794
46	0x3f4826c8	0.78184175
47	0x3f5e8332	0.8691894
48	0x3f4adeda	0.79246294
49	0x3f6810c3	0.90650576
50	0x3f602900	0.8756256
51	0x3f54b359	0.8308616
52	0x3f5d08a8	0.86341333
53	0x3f593628	0.8484826
54	0x3f66ff21	0.90233046
55	0x3f41b4f0	0.75666714
56	0x3f55c9c3	0.8351099
57	0x3f63613a	0.8882023
58	0x3f4b6735	0.79454356
59	0x3f5515e0	0.83236504
60	0x3f538611	0.82626444
61	0x3f48af83	0.7839281
62	0x3f63c07f	0.889656
63	0x3f560b55	0.8361104
64	0x3f62e9e6	0.8863815
65	0x3f535b2f	0.8256101
66	0x3f66a592	0.9009639
67	0x3f485850	0.78259754
68	0x3f41fe0f	0.7577829
69	0x3f5641be	0.83694065
70	0x3f4bec05	0.7965701
71	0x3f5593ec	0.83428836
72	0x3f60a60d	0.87753373
73	0x3f4cb4c3	0.7996332
74	0x3f4e8fc1	0.806881
75	0x3f5003d7	0.8125586
76	0x3f41da39	0.75723606
77	0x3f510fa2	0.8166448
78	0x3f54068e	0.828225
79	0x3f4cff6a	0.8007723
80	0x3f4ca9f1	0.7994681
81	0x3f5cd732	0.8626586
82	0x3f4de419	0.80426174
83	0x3f5df533	0.8670227
84	0x3f3e6db7	0.7438616
85	0x3f4f54a1	0.8098851
86	0x3f6139fe	0.87979114
87	0x3f5ec8f1	0.8702536
88	0x3f6d53ae	0.9270581
89	0x3f448b90	0.76775455
90	0x3f4a76bf	0.7908744
91	0x3f60ad11	0.8776408
92	0x3f46cb21	0.776537
93	0x3f64eb41	0.8942147
94	0x3f658296	0.89652383
95	0x3f69a6b5	0.9127
96	0x3f4a530e	0.7903298
97	0x3f4a9d8c	0.7914665
98	0x3f5aa4e1	0.85407835
99	0x3f5dd510	0.8665323
100	0x3f5ca432	0.8618804
101	0x3f62e35f	0.8862819
102	0x3f636879	0.8883129
103	0x3f597c16	0.84954965
104	0x3f60e226	0.87845075
105	0x3f61c597	0.88192123
106	0x3f66b630	0.90121746
107	0x3f619183	0.8811266
108	0x3f5024da	0.8130623
109	0x3f558aba	0.83414805
110	0x3f55e092	0.8354579
111	0x3f69accf	0.9127931
112	0x3f41f8dd	0.7577036
113	0x3f4cd7b8	0.8001666
114	0x3f4ebd77	0.8075785
115	0x3f575b0e	0.84123313
116	0x3f64e412	0.8941051
117	0x3f578866	0.841925
118	0x3f5a1057	0.8518118
119	0x3f51bb34	0.81926274
120	0x3f4fd1e6	0.81179655
121	0x3f4aad5b	0.7917077
122	0x3f4bec5d	0.79657537
123	0x3f4f869c	0.8106477
124	0x3f641e8a	0.891091
125	0x3f5cf426	0.8631004
126	0x3f5d5689	0.8646017
127	0x3f4cfe1f	0.8007526
128	0x3f462f0a	0.77415526
129	0x3f580290	0.8437891
130	0x3f45a5ab	0.77205914
131	0x3f485deb	0.7826831
132	0x3f64f2b1	0.8943282
133	0x3f49f127	0.78883594
134	0x3f615def	0.88033956
135	0x3f4db6b9	0.8035694
136	0x3f607807	0.8768315
137	0x3f43823f	0.76370615
138	0x3f58d0f9	0.84693867
139	0x3f5fefe4	0.8747542
140	0x3f5aad04	0.8542025
141	0x3f46294d	0.7740677
142	0x3f4dc077	0.80371803
143	0x3f4c236e	0.7974156
144	0x3f54eff7	0.8317866
145	0x3f551229	0.83230835
146	0x3f5512ed	0.83232003
147	0x3f438c1e	0.76385677
148	0x3f4f9491	0.8108607
149	0x3f54e3f9	0.8316036
150	0x3f4d3427	0.80157703
151	0x3f663bc7	0.89934963
152	0x3f53432d	0.8252438
153	0x3f562a46	0.83658254
154	0x3f4c024d	0.7969101
155	0x3f47855c	0.77937865
156	0x3f5501f7	0.83206123
157	0x3f5084f7	0.8145289
158	0x3f48c621	0.7842732
159	0x3f6f05db	0.9336831
160	0x3f56f73a	0.8397099
161	0x3f4d9faa	0.80321753
162	0x3f596f45	0.8493541
163	0x3f509a97	0.81485885
164	0x3f57fcb8	0.84369993
165	0x3f681131	0.9065123
166	0x3f5e4feb	0.86840695
167	0x3f3cc24b	0.7373397
168	0x3f5b84af	0.85749334
169	0x3f494a98	0.78629446
170	0x3f62fc99	0.88666683
171	0x3f4eca77	0.80777687
172	0x3f581ef7	0.8442225
173	0x3f45dab3	0.77286834
174	0x3f4d6b4d	0.80241853
175	0x3f47c2f8	0.78031874
176	0x3f56ffdb	0.83984154
177	0x3f4c95b7	0.79915947
178	0x3f4e0582	0.80477154
179	0x3f49b49c	0.78791213
180	0x3f4f7148	0.8103223
181	0x3f565931	0.83729845
182	0x3f6387bd	0.88878995
183	0x3f4d8779	0.8028484
184	0x3f5b75e2	0.8572675
185	0x3f54c6fb	0.8311612
186	0x3f4c5111	0.798112
187	0x3f5e0128	0.86720514
188	0x3f686d5f	0.9079189
189	0x3f68984f	0.90857404
190	0x3f650463	0.8945982
191	0x3f491f8c	0.7856376
192	0x3f5b3992	0.8563472
193	0x3f4ad8e1	0.7923718
194	0x3f6241ac	0.8838146
195	0x3f3a8bdf	0.72869676
196	0x3f5d9922	0.8656179
197	0x3f55a0c2	0.8344842
198	0x3f3424b8	0.7036853
199	0x3f5fe912	0.8746501
200	0x3f57067f	0.8399429
201	0x3f5b3996	0.85634744
202	0x3f5004d4	0.8125737
203	0x3f587cc2	0.84565365
204	0x3f52d24d	0.82352144
205	0x3f5648f6	0.8370508
206	0x3f49ba76	0.7880014
207	0x3f538f1d	0.8264025
208	0x3f5abe2c	0.8544643
209	0x3f43feb1	0.76560503
210	0x3f50716e	0.8142308
211	0x3f556fd3	0.83373755
212	0x3f4dda68	0.80411386
213	0x3f695593	0.911462
214	0x3f3b2f30	0.7311888
215	0x3f5bdce6	0.8588394
216	0x3f631130	0.886981
217	0x3f486e82	0.7829362
218	0x3f51881f	0.8184833
219	0x3f49dc66	0.78851926
220	0x3f614da3	0.8800909
221	0x3f584969	0.84487015
222	0x3f6e2717	0.93028396
223	0x3f5c188f	0.85974973
224	0x3f5211b2	0.8205825
225	0x3f5ab2dc	0.8542917
226	0x3f6dead6	0.92936456
227	0x3f60ed52	0.8786212
228	0x3f6571b2	0.8962661
229	0x3f60edbd	0.8786276
230	0x3f4f664d	0.81015474
231	0x3f5a6918	0.8531661
232	0x3f52d1f3	0.8235161
233	0x3f4d774c	0.8026016
234	0x3f57d40b	0.84307927
235	0x3f5bf037	0.85913414
236	0x3f5466c5	0.82969314
237	0x3f47faad	0.78116876
238	0x3f54c1f0	0.83108425
239	0x3f5e9aac	0.8695476
240	0x3f4c6ccf	0.7985353
241	0x3f679780	0.90465546
242	0x3f53801e	0.82617366
243	0x3f5d4732	0.8643676
244	0x3f4331a1	0.762476
245	0x3f5748cd	0.8409546
246	0x3f510c80	0.816597
247	0x3f528d6d	0.8224705
248	0x3f52c322	0.82329
249	0x3f598074	0.8496163
250	0x3f59d131	0.85084826
251	0x3f543446	0.8289226
252	0x3f5801f9	0.8437801
253	0x3f5f38a7	0.8719582
254	0x3f4f3d46	0.8095287
255	0x3f6094f6	0.87727296

encoder.2.bias f4 [256]
0	0xbba4d629	-0.0050304127
1	0x3a83e6f7	0.001006334
2	0xba7d60f0	-0.0009665629
3	0xbbbf2b7c	-0.005834041
4	0x3b1a06eb	0.0023502659
5	0x3ba207ca	0.004944776
6	0xbb01f9d8	-0.0019832756
7	0x3abc9bf8	0.0014389744
8	0xbbb43c29	-0.0055003357
9	0x3b973895	0.0046148994
10	0xbae98094	-0.0017814809
11	0xbaa50663	-0.0012590404
12	0xb98e1c2d	-0.00027105343
13	0xba814769	-0.0009863201
14	0xba772360	-0.00094275735
15	0xbaf4da63	-0.0018680807
16	0x3b5535b4	0.003253323
17	0xba857d0a	-0.0010184359
18	0xbad9a7b0	-0.0016605761
19	0xb807a0a2	-3.233611e-05
20	0xbb4e4f5d	-0.003148041
21	0xbacede42	-0.0015782791
22	0x3a56dcab	0.0008196334
23	0xba922cec	-0.0011152304
24	0xbbb0f84b	-0.0054006926
25	0x3b5958ae	0.003316443
26	0x3a8c377c	0.0010697688
27	0xbad6ab5e	-0.0016377976
28	0x3b185bfc	0.0023248186
29	0x3b3ad391	0.002850745
30	0xbab851cf	-0.0014062467
31	0x3a67c247	0.00088409
32	0xbaa3a1cb	-0.0012484131
33	0xbbf46a9e	-0.007458999
34	0x3aade80c	0.0013268008
35	0xba83fe45	-0.0010070285
36	0xbaa7062b	-0.0012742927
37	0x3bf864d6	0.00758038
38	0xbb609ef4	-0.003427443
39	0xb9773522	-0.00023575549
40	0xbb1d573e	-0.00240083
41	0xbac06c3f	-0.0014680697
42	0xbb8fbf52	-0.004386821
43	0x3a4b2b2d	0.0007750269
44	0x3b08d60a	0.002087953
45	0xbaf65aa1	-0.001879532
46	0xbb7e07d3	-0.0038761988
47	0x3b75b44f	0.0037491505
48	0x3ae996c5	0.0017821422
49	0xbb4eb757	-0.0031542385
50	0x3b38c9bc	0.0028196415
51	0xba004e57	-0.0004894486
52	0xbafb64ff	-0.001917988
53	0xb9b1180c	-0.00033777987
54	0xb8d23cf2	-0.00010024932
55	0x3b0cb3b5	0.0021469418
56	0xbacbd9c7	-0.0015552574
57	0x3b36af62	0.0027875532
58	0x3c17c39d	0.009262946
59	0xba016d5f	-0.0004937257
60	0x3b197e17	0.0023421103
61	0x3a213f85	0.0006151128
62	0x3adb54ab	0.0016733607
63	0x3ba27be7	0.004958618
64	0x3a710d8c	0.0009195439
65	0x394ff935	0.00019833895
66	0xba644f67	-0.00087093416
67	0x3b5752d8	0.0032855775
68	0x3adea354	0.0016985931
69	0x3a9ee6cb	0.0012123225
70	0xbae13b1b	-0.0017183752
71	0xba9a302a	-0.0011763622
72	0x3b0deae7	0.0021654905
73	0xb9a36396	-0.0003116398
74	0xba9f28fc	-0.0012142952
75	0xbb78ded9	-0.0037974624
76	0xb9ccf1db	-0.00039090108
77	0xbaec2df7	-0.001801907
78	0x3b031be2	0.0020005633
79	0x3b1f06c2	0.0024265503
80	0x3a3c8897	0.00071919843
81	0xbad0f28c	-0.0015941425
82	0xba0ad67b	-0.00052962423
83	0xba94cd49	-0.0011352684
84	0x3aee6a3f	0.0018189623
85	0xba4f30d7	-0.0007903701
86	0x3a260d2e	0.00063343614
87	0x3b0005ad	0.0019534633
88	0x3b36f130	0.0027914755
89	0x3bc35c06	0.005961898
90	0xbace7763	-0.0015752133
91	0x398c0fff	0.000267148
92	0x3b15e7ca	0.0022873753
93	0x3b038c58	0.0020072665
94	0xbb4c49c6	-0.0031171902
95	0x3c1f4403	0.009720805
96	0xbb6c6cb7	-0.0036075541
97	0x3bbb804a	0.0057220804
98	0xba526294	-0.00080255535
99	0xbac2184d	-0.0014808268
100	0xbaff5e3f	-0.0019483044
101	0xbb8e7e62	-0.004348562
102	0xbb863f48	-0.004096899
103	0xbb35cbf8	-0.0027739983
104	0xbb926117	-0.0044671404
105	0xbacb5c59	-0.0015515193
106	0x3b459a4e	0.0030151787
107	0xba616d9d	-0.00085994025
108	0xbadfabea	-0.0017064784
109	0xbb01e73d	-0.0019821667
110	0xbbb5696b	-0.0055362484
111	0x3ab50b57	0.0013812584
112	0xba602f8f	-0.00085520087
113	0xbab07e27	-0.0013465331
114	0xbaf40c31	-0.0018619356
115	0xb972f8ba	-0.00023171576
116	0xba72778b	-0.00092493807
117	0x39696e67	0.0002226174
118	0x3a32201b	0.0006794945
119	0xbb63a7b4	-0.003473741
120	0x36f9204a	7.424537e-06
121	0x3b878c55	0.004136602
122	0x3a4160f6	0.0007376814
123	0xbab1b7be	-0.0013558788
124	0xbbdccc43	-0.006738217
125	0x38694f44	5.562535e-05
126	0x38f98e85	0.000118997916
127	0xbb17fccd	-0.0023191452
128	0x3b332083	0.002733261
129	0x3a0df896	0.00054157653
130	0x3af2743d	0.0018497776
131	0x3977b764	0.00023624074
132	0xba57ffdf	-0.0008239727
133	0x3b12467b	0.0022319842
134	0x3a45b3b2	0.00075417303
135	0xbb1839c3	-0.0023227788
136	0x3abc0a11	0.0014346262
137	0xba336d08	-0.0006844555
138	0xbac93314	-0.0015350305
139	0xbb0f8d01	-0.0021904113
140	0xba0fa8fb	-0.0005480197
141	0xbb5810c6	-0.0032968982
142	0x3b6ebe50	0.0036429353
143	0xbba1eeb7	-0.004941787
144	0x3b2b1b70	0.0026108883
145	0x3bbc8de4	0.0057542194
146	0x3b0f198e	0.00218353
147	0x3aa63f75	0.0012683707
148	0x3ad7b903	0.0016458336
149	0xbb4f5b7f	-0.003164023
150	0xba8a4376	-0.0010548669
151	0x3a5d9614	0.00084528443
152	0xbb289f3f	-0.0025729684
153	0xbb86708b	-0.0041027716
154	0x3b4ee3fe	0.0031569
155	0xbaeab8ac	-0.001790782
156	0x3b365d3f	0.0027826575
157	0x3b019534	0.001977277
158	0xbb259ffd	-0.0025272362
159	0xbabee1c8	-0.0014563138
160	0x3b1cded5	0.002393653
161	0x399940e9	0.00029230796
162	0x3add8fe6	0.0016903847
163	0xb7499995	-1.2016292e-05
164	0x3b8ca60f	0.0042922567
165	0x3b876863	0.004132317
166	0x3be985f0	0.0071265623
167	0xba3cee24	-0.00072071166
168	0x38f11903	0.00011496434
169	0x3b618fd3	0.0034418001
170	0xbb8221cf	-0.0039713155
171	0x3a02297c	0.0004965288
172	0x383b28ec	4.4622386e-05
173	0x3ae85719	0.0017726152
174	0x3b33261f	0.0027335954
175	0xba06ee6a	-0.0005147221
176	0xba88b0c1	-0.0010428653
177	0xbac7cdbd	-0.001524381
178	0x3affc749	0.0019514348
179	0xb972686c	-0.00023117819
180	0x3aedb21a	0.0018134743
181	0xbb8321e9	-0.004001845
182	0xbb5f7923	-0.0034099303
183	0xbadcb17f	-0.0016837566
184	0x3b9cce04	0.004785301
185	0xbb5b03ae	-0.0033418941
186	0x3b7c37a6	0.0038485317
187	0x3b98f79a	0.0046681883
188	0xbb04736b	-0.0020210396
189	0xbb77dca3	-0.0037820719
190	0x3aca1da9	0.0015420216
191	0x398fb811	0.00027412226
192	0x3a940046	0.0011291585
193	0x3a18b8a4	0.00058258534
194	0xbad90ce7	-0.0016559631
195	0x396e6208	0.00022733968
196	0x3a92ac86	0.0011190332
197	0x3b16c068	0.0023002867
198	0xbb04c16d	-0.0020256892
199	0xbaf18ca2	-0.0018428753
200	0xbb455f13	-0.0030116483
201	0x3b9d7104	0.0048047323
202	0xbadcb908	-0.0016839812
203	0xbafa460a	-0.001909436
204	0x3af9f9e4	0.0019071666
205	0x3afe62d7	0.0019408119
206	0xbbacf96b	-0.0052787564
207	0x3c19b9ff	0.009382724
208	0x3b6b3812	0.0035891575
209	0xba310ae8	-0.00067536393
210	0x3a84d924	0.0010135514
211	0x3ac0da8e	0.0014713572
212	0xbb4c38f8	-0.0031161886
213	0xbb16e902	-0.0023027067
214	0x38729954	5.7840094e-05
215	0x3b32e013	0.0027294203
216	0xb7b298ff	-2.1290498e-05
217	0x3b9715cc	0.0046107527
218	0xba04caa5	-0.0005065597
219	0xba980aa3	-0.001159985
220	0xbb283c51	-0.0025670717
221	0xbabb3f2c	-0.0014285794
222	0xbb748f22	-0.003731676
223	0x3b055b6d	0.0020348683
224	0x3b1b7776	0.0023722327
225	0x3adf7c57	0.0017050606
226	0xbacda51b	-0.0015689464
227	0xbb877e45	-0.0041349255
228	0xb9ff6812	-0.0004871493
229	0xb9d2025d	-0.00040056082
230	0xba659039	-0.00087571476
231	0x3a97475c	0.0011541652
232	0xbac72925	-0.0015194757
233	0xba6e83ca	-0.00090986176
234	0x3ad841d1	0.0016499107
235	0xbab53d90	-0.0013827551
236	0x3a023a47	0.00049677904
237	0xbb3a52f5	-0.0028430794
238	0xbbb0c04b	-0.005394017
239	0x3a0ad4a0	0.0005295966
240	0xb9a65676	-0.00031726406
241	0xba7b1018	-0.00095772883
242	0xbbba5686	-0.005686584
243	0x3ab2f26a	0.0013652567
244	0x3b11bd18	0.0022237953
245	0x3af4bda8	0.0018672245
246	0xb8144115	-3.5346562e-05
247	0x3b3cf00a	0.0028829598
248	0xb9fa0c47	-0.00047692863
249	0x3af066da	0.0018341199
250	0xbb8b6d19	-0.004254949
251	0x3aa20905	0.0012362307
252	0x38fdeb78	0.000121078396
253	0xbb41f007	-0.002959253
254	0xbb5cf742	-0.0033716713
255	0x3b5f5aa9	0.0034081137

encoder.4.weight f4 [256, 256]
0	0xba792547	-0.0009504151
1	0x3a15e05e	0.0005717332
2	0xba980a7c	-0.0011599804
3	0xb90355ff	-0.0001252517
4	0xba367cb0	-0.0006961329
5	0x39eadcbf	0.00044796427
6	0x3a205fd3	0.00061177945
7	0x39fb90ae	0.00047982245
8	0xba3cb824	-0.000719907
9	0xbaba713f	-0.0014224424
10	0xb9303007	-0.0001680256
11	0x3a9160f9	0.0011091522
12	0x393a5ec2	0.00017773642
13	0x3a166cab	0.00057382387
14	0x3a129125	0.0005591086
15	0xba2e471e	-0.00066481705
16	0x3a21bacf	0.0006169499
17	0x38ac96ce	8.229689e-05
18	0xba4bd269	-0.0007775189
19	0x3ad5fcfa	0.0016326003
20	0xba5fd693	-0.0008538749
21	0xba113077	-0.0005538533
22	0xb4fa301f	-4.6601141e-07
23	0x39699090	0.00022274465
24	0xb979893a	-0.00023797611
25	0x392bd741	0.00016388019
26	0xb8c15836	-9.219388e-05
27	0xb9f50e86	-0.00046740862
28	0x3a1ee8e8	0.00060619274
29	0xba92883b	-0.0011179516
30	0xba2187de	-0.00061619084
31	0xba098cfe	-0.0005247145
32	0x386bfd3a	5.62642e-05
33	0x39a471ab	0.00031365207
34	0x3afe0b4e	0.0019382031
35	0xb95dde87	-0.000211591
36	0xba40f854	-0.00073612225
37	0x3a6b8bc7	0.0008985367
38	0x3a1bc558	0.0005942187
39	0x379099e3	1.7237797e-05
40	0xbac40b70	-0.0014957022
41	0xb928908d	-0.00016075578
42	0x3a52badf	0.000803871
43	0x3aa1795f	0.0012319497
44	0xba1a1619	-0.00058779266
45	0x3a4f6042	0.0007910767
46	0xb87f9f26	-6.0944956e-05
47	0x3ac8ace0	0.001531031
48	0x3a4cc701	0.00078116363
49	0xba8510a4	-0.0010152054
50	0x3a1a5383	0.0005887078
51	0x3a2934e5	0.000645472
52	0xbac6b06a	-0.0015158777
53	0x39891558	0.0002614658
54	0xb989398d	-0.00026173555
55	0x3a54e0ea	0.0008120673
56	0xb9f6df0e	-0.00047086965
57	0x39a2b93c	0.00031037058
58	0xb9cc9679	-0.00039022023
59	0x39503e21	0.0001985957
60	0xb9e73100	-0.0004409626
61	0xba39fb03	-0.00070945936
62	0x3a8b901f	0.001064781
63	0x3977e05e	0.00023639339
64	0xba2a5378	-0.0006497423
65	0x38533825	5.035861e-05
66	0x394795a5	0.00019033866
67	0xba8aa458	-0.0010577543
68	0xbad139fa	-0.0015962713
69	0xbad57152	-0.0016284382
70	0xba7e9736	-0.0009711863
71	0xbab0672c	-0.0013458482
72	0x3a066539	0.00051267777
73	0x3a64f602	0.0008734168
74	0x3a4e0ac2	0.00078598794
75	0x3971a97a	0.00023046686
76	0xba0fc05d	-0.00054836815
77	0x3a1f380e	0.00060737215
78	0x3a7f24c7	0.0009732958
79	0x3a1e43c2	0.00060373184
80	0xba6b144d	-0.00089675636
81	0x3975409e	0.00023389093
82	0xb9ef26e8	-0.0004561462
83	0x39c1a7c4	0.00036936824
84	0x396fec7f	0.00022880918
85	0xb95ba235	-0.00020945894
86	0x3a0dcf8c	0.000540965
87	0x3a120c32	0.0005571275
88	0x39a25dbb	0.00030968882
89	0x3a980e54	0.001160095
90	0x39bd151f	0.00036064626
91	0x3a05e946	0.0005108308
92	0x393d39fb	0.00018046044
93	0x3a71757f	0.00092109287
94	0xb9e684a6	-0.0004396785
95	0x3a5f4229	0.00085166335
96	0x3a9b7f03	0.0011863414
97	0x3a814a06	0.000986398
98	0x3a601360	0.0008547809
99	0xba9e9102	-0.0012097659
100	0x3a0a093f	0.000526566
101	0xb9076711	-0.00012912998
102	0xba5d2ff1	-0.0008437625
103	0xba3e687a	-0.0007263493
104	0x39ac8358	0.00032904255
105	0xba0d1b02	-0.00053827476
106	0x3a1957db	0.00058495783
107	0x3969d72e	0.00022300772
108	0xba7f3112	-0.000973479
109	0x39087c73	0.00013016332
110	0xb9d1f617	-0.00040046938
111	0x39ff8c09	0.00048741724
112	0x39eb0847	0.0004482886
113	0xbab4fa7e	-0.0013807563
114	0xb937881c	-0.00017502945
115	0xba2835b8	-0.0006416696
116	0x3948ea91	0.00019160869
117	0x38f8d6c0	0.00011865562
118	0x3a2fb6f5	0.0006702983
119	0xba04c6a9	-0.0005065003
120	0x3a17387e	0.0005768611
121	0x39b6a0ee	0.00034833647
122	0x3a28e929	0.0006443435
123	0xbaa28aab	-0.0012400945
124	0xb9566e73	-0.00020449776
125	0xba60cc47	-0.00085753616
126	0x3a148ebe	0.0005667022
127	0x3956a864	0.00020471361
128	0xba2010d9	-0.0006106026
129	0xb9c047ba	-0.00036674534
130	0x384415f8	4.67505e-05
131	0x3a88a1fa	0.0010424249
132	0x3a054251	0.0005083429
133	0x37c94cb7	2.399679e-05
134	0xba075e87	-0.0005163927
135	0x3a5c8140	0.0008411594
136	0xba13a9f6	-0.0005632931
137	0xba2b5971	-0.000653646
138	0xba2b3d09	-0.0006532227
139	0x394a7226	0.00019306745
140	0xbae791bb	-0.0017667332
141	0x39af90cd	0.00033486486
142	0x395377f1	0.0002016721
143	0xba7f2cf4	-0.00097341766
144	0x39bb44ab	0.0003571858
145	0x39222d4a	0.00015466395
146	0x38872f0e	6.446066e-05
147	0x3a42731a	0.0007417664
148	0x397ee8d8	0.00024310069
149	0xbad149da	-0.0015967444
150	0x39e2841b	0.00043204505
151	0xb9176161	-0.00014436759
152	0x3a122220	0.0005574543
153	0xba1578a6	-0.0005701877
154	0xb9676620	-0.00022067921
155	0xb9c1d365	-0.0003696933
156	0x3ab44d6b	0.0013755983
157	0x3a5fc6b0	0.00085363816
158	0xbaf9fb72	-0.0019072129
159	0xb94aea45	-0.00019351493
160	0x3a97e2d3	0.0011587985
161	0xb95623e3	-0.00020421999
162	0xba2a665e	-0.0006500239
163	0xbab670b9	-0.0013919092
164	0xba3c47ac	-0.0007182311
165	0x3a028860	0.0004979428
166	0x39ecd1a4	0.00045169622
167	0xba0dd10c	-0.00054098736
168	0x39d6309c	0.00040853478
169	0x3a8880a3	0.0010414313
170	0x371f442e	9.493013e-06
171	0x39884327	0.00025989974
172	0xb9c1b157	-0.00036943957
173	0xba01c282	-0.00049499434
174	0x3a7c6ee4	0.0009629561
175	0x3a7a200d	0.0009541519
176	0xba230383	-0.000621848
177	0x38b5581e	8.647166e-05
178	0xb8a54ed9	-7.8824996e-05
179	0x3a0de265	0.00054124586
180	0xb849a171	-4.807249e-05
181	0x3927ffde	0.00016021679
182	0xb9e84ae9	-0.000443063
183	0x3a1d6478	0.0006004046
184	0x39a6f47d	0.00031844145
185	0x3a94386f	0.0011308322
186	0xba9d5809	-0.0012004386
187	0x391b380c	0.00014802831
188	0xbafc181e	-0.0019233262
189	0xba0dfab7	-0.00054160826
190	0x3a9d68f3	0.0012009427
191	0x3a901c05	0.0010994679
192	0x3a2a0313	0.00064854434
193	0xb98cd68a	-0.00026862725
194	0xb979ef32	-0.00023835598
195	0x38dad5cc	0.00010434873
196	0xba388760	-0.00070392154
197	0x3a3da92d	0.0007234987
198	0xbb0b5d3a	-0.0021265284
199	0xb9909f61	-0.00027584567
200	0xba48a3ce	-0.00076538033
201	0xb905e94a	-0.00012770775
202	0x388dc305	6.759729e-05
203	0xb9380979	-0.00017551136
204	0x3a28cb57	0.00064389914
205	0xba4c01d3	-0.0007782254
206	0x394f7149	0.0001978326
207	0xba07b9b5	-0.0005177514
208	0x3977c9b6	0.00023630899
209	0x3966286f	0.00021949572
210	0xbb092993	-0.0020929321
211	0xb9c39611	-0.00037305107
212	0xba408fe9	-0.0007345663
213	0xba7d3fc8	-0.0009660688
214	0xbabf4cf6	-0.001459508
215	0xba9e31ad	-0.0012069248
216	0x3a2e60d0	0.00066519994
217	0xba3cbd61	-0.00071998505
218	0x390af8af	0.00013253347
219	0xb8fe2106	-0.00012117815
220	0x39069e05	0.00012838103
221	0x3a05a2c3	0.0005097801
222	0xba5e91a9	-0.0008490333
223	0xba982551	-0.0011607801
224	0x3a388e1d	0.00070402195
225	0x3a06ca8e	0.00051418773
226	0xb915b1b8	-0.00014275953
227	0x39b81e35	0.0003511772
228	0x3a101bf9	0.00054973323
229	0x3a6f6b04	0.0009133073
230	0x3a92697f	0.0011170356
231	0xba2de12b	-0.0006632979
232	0xba83674b	-0.001002529
233	0xba1d73ce	-0.0006006331
234	0xba916bb0	-0.0011094715
235	0xba854f37	-0.0010170703
236	0xba411c36	-0.00073665695
237	0x3ab0248e	0.0013438629
238	0xb9af37bb	-0.00033420124
239	0xb94f5f4f	-0.00019776564
240	0xb965b344	-0.00021905923
241	0xb83083ba	-4.208435e-05
242	0x3743463e	1.163926e-05
243	0xba6a8c4a	-0.00089472963
244	0x3a9ba8e1	0.0011875891
245	0xb9d4312a	-0.0004047242
246	0xb91d5606	-0.00015004733
247	0x3aea952d	0.0017897241
248	0x39021031	0.00012403798
249	0x39bf098e	0.00036437478
250	0xba1acb2e	-0.000590491
251	0xba4fa531	-0.0007921039
252	0xb8ba3fce	-8.881056e-05
253	0xb9166d5b	-0.00014345853
254	0xbad88990	-0.0016520489
255	0x39882cd7	0.0002597335

encoder.4.bias f4 [256]
0	0xba3a123e	-0.0007098055
1	0x3d5bf821	0.05370343
2	0xbc7fc271	-0.015610323
3	0xbcbb2946	-0.02284683
4	0xbc95ac48	-0.018270627
5	0xbcadf78f	-0.02123621
6	0xbd33320c	-0.0437489
7	0x3cc2e074	0.023788668
8	0x3d300b85	0.042979736
9	0x3d2b18c9	0.041771684
10	0x3ce0ecc3	0.027456647
11	0xbc421519	-0.01184585
12	0xbd0ad1fb	-0.03389166
13	0x3c9962fd	0.01872396
14	0x3d3c2e48	0.045942575
15	0xbcd8c510	-0.026461154
16	0x3d1c35f3	0.038137387
17	0xbca38dd4	-0.01996509
18	0x3bc68d8b	0.0060593537
19	0x3cbcaa2b	0.023030361
20	0xbd0b53f2	-0.034015603
21	0xbc625dfd	-0.013816354
22	0x3d007d24	0.031369343
23	0xbb13e487	-0.0022566633
24	0xbd0b461f	-0.03400242
25	0x3c8417fd	0.01612472
26	0x3c9ca161	0.01911992
27	0x3c9d199f	0.019177256
28	0x3c290ca3	0.010317954
29	0xbcb48b28	-0.022039011
30	0x3d34cdab	0.044141453
31	0x3d4a4b37	0.049388137
32	0xbce1a898	-0.027546212
33	0x3cc1744d	0.023615027
34	0x3d0d7f75	0.03454538
35	0x3d2cd0d2	0.042191334
36	0xbccdccaf	-0.025122015
37	0xba0e7cda	-0.00054354744
38	0xbc529240	-0.0128522515
39	0x3d2af338	0.041735858
40	0x3a4d08e6	0.00078214554
41	0x397126b6	0.00022997972
42	0x3d30415c	0.04303108
43	0xbcc4629a	-0.023972798
44	0xbbbc7215	-0.0057509043
45	0x3d3f388c	0.046684787
46	0x3d0cbec9	0.034361634
47	0x3d10beba	0.03533814
48	0xbd62be34	-0.055357173
49	0x3d59d367	0.053180125
50	0xbce2be32	-0.027678583
51	0xbce46468	-0.027879909
52	0xbd003891	-0.031303946
53	0xbd0d0ef4	-0.03443809
54	0xbbd2a2e4	-0.0064281095
55	0xbd2aa48d	-0.041660834
56	0x3d6bcc0a	0.057567634
57	0xbd2322d5	-0.03982814
58	0xbcbeb199	-0.023278045
59	0xbbdd5680	-0.0067546964
60	0xbb54e9ce	-0.0032487991
61	0xb9f2dd40	-0.0004632268
62	0xbd15a7dd	-0.03653704
63	0xbc5121cb	-0.0127644045
64	0x3d0d1ded	0.034452368
65	0x3baa6571	0.005200081
66	0x3c97c847	0.018528117
67	0x3d38790e	0.04503732
68	0x3ce61eca	0.028090853
69	0x3c372929	0.011179247
70	0xbcedd3a1	-0.029031577
71	0xbcc4bf69	-0.024017053
72	0x3c9169b7	0.017750604
73	0x3cf97de4	0.030455537
74	0x3ca6548f	0.020303993
75	0x3c82e5dd	0.015978748
76	0x3cab2b0a	0.020894546
77	0xbc6cf9c2	-0.014463844
78	0x3c56c094	0.013107438
79	0xbd655af3	-0.05599494
80	0x3cafe61e	0.021472033
81	0xbce5554b	-0.027994772
82	0xbd5607a2	-0.052253373
83	0xbbff4dd9	-0.0077912626
84	0xba3b140c	-0.0007136471
85	0x3b5d48b2	0.0033765254
86	0x3b9b0f5a	0.0047320547
87	0xbb6fba5f	-0.0036579592
88	0x3d0ea96c	0.034829542
89	0x3c1632bc	0.009167369
90	0xbcea4bda	-0.028600622
91	0x3c3b38af	0.011427089
92	0x3d2f2220	0.042757154
93	0x3ce70d3f	0.028204558
94	0xbbe8456f	-0.0070883553
95	0xbca90123	-0.020630425
96	0x3d2770d4	0.040879086
97	0xbd62fa78	-0.055414647
98	0x3d1c460e	0.038152747
99	0x3bb52e25	0.0055291825
100	0x3caa5602	0.020792965
101	0x38a2bae6	7.7595745e-05
102	0xbcc0d16e	-0.023537364
103	0xbc29c0fd	-0.010360953
104	0x3c82caa2	0.015965763
105	0xbcada169	-0.02119513
106	0xbcd02ebf	-0.025412915
107	0xbd28fe6a	-0.041258253
108	0xbc136dbf	-0.0089983335
109	0x3d597a80	0.05309534
110	0xbd2089f0	-0.039194047
111	0x3ba5f0e5	0.0050641173
112	0xbd22781a	-0.03966532
113	0x3d3c2da7	0.045941975
114	0xbd3baf78	-0.045821637
115	0x3d0c2143	0.03421141
116	0x3c5843d1	0.013199762
117	0xbd0956ab	-0.03352992
118	0x3b7fef85	0.0039052677
119	0x3c4264ee	0.011864884
120	0xbd054cfc	-0.03254412
121	0x3cc1bf92	0.023650918
122	0x3ca9e545	0.020739207
123	0xbcce0fba	-0.025153983
124	0x3cd2bbc6	0.025724303
125	0x3d39042c	0.045169994
126	0xbd079f04	-0.033110633
127	0x3ba57b2d	0.005050084
128	0x3aa633db	0.0012680249
129	0xbb4fe2eb	-0.0031720947
130	0xbc787526	-0.015164649
131	0xbd06caf0	-0.03290838
132	0xbd2960f8	-0.041352242
133	0x3d552e5f	0.052046176
134	0xbca9d878	-0.020733103
135	0xbd38a987	-0.04508355
136	0xbd246288	-0.04013303
137	0xbbdbb3b5	-0.0067047724
138	0xbbc1e33c	-0.005916981
139	0x3d248be6	0.04017248
140	0x3d50df4a	0.050994195
141	0x3d147a97	0.036249723
142	0xbd3fac5c	-0.046795234
143	0x3d058938	0.032601565
144	0xbc4d1532	-0.01251726
145	0xbd2a5df5	-0.04159351
146	0xb9ee40d3	-0.00045443195
147	0x3c39b542	0.011334719
148	0xbaacdaf4	-0.0013187812
149	0xbd4b07b2	-0.049567886
150	0x3ccf813b	0.025330177
151	0x3d035434	0.032062724
152	0xbd42bae9	-0.047541533
153	0x3ceb392f	0.02871379
154	0x3c987862	0.01861209
155	0xbacbdf0d	-0.0015554145
156	0xbcd6a0ad	-0.026199663
157	0xba50ba40	-0.0007962324
158	0x3d154fef	0.036453184
159	0x3c3674dc	0.01113626
160	0x3cfd5d98	0.030928418
161	0xb9a8525c	-0.0003210482
162	0x3cd50bc3	0.026006585
163	0xbd5b34df	-0.05351722
164	0x3d07d1c0	0.033159018
165	0x3c06d0c7	0.008228487
166	0xbd47b19a	-0.04875336
167	0x3d5e6fee	0.054305963
168	0xb611a542	-2.1702876e-06
169	0x3c43389e	0.011915354
170	0xbb2ab387	-0.0026046948
171	0xbcd7c78e	-0.026340272
172	0x3bdbac43	0.006703885
173	0x3d18ce2e	0.037306003
174	0x3d0481cc	0.032350346
175	0x3c227905	0.009916549
176	0x39b89e58	0.0003521319
177	0x3d512720	0.051062703
178	0x3bb01828	0.0053739734
179	0xbb4092da	-0.0029384405
180	0xbc3221ee	-0.010872347
181	0xbd2d80bc	-0.0423591
182	0xbd1a2868	-0.03763619
183	0xbca887a8	-0.020572498
184	0x3c8d1326	0.017221045
185	0xbd45011b	-0.048096757
186	0xbd136aea	-0.035990633
187	0x3cdae7f2	0.026721928
188	0x3c691ace	0.014227582
189	0xba8758c1	-0.0010326133
190	0xbc5b7e23	-0.013396773
191	0xbcf17644	-0.029475339
192	0xba5b3af7	-0.00083629735
193	0xbc63bb74	-0.013899673
194	0x3bad25dc	0.005284054
195	0xbc800408	-0.015626922
196	0xbb6c112b	-0.0036020975
197	0x3c80226d	0.015641415
198	0xbca44ac5	-0.020055184
199	0xbc9de43f	-0.019273875
200	0xbd31528f	-0.043291625
201	0x3cbd7ea0	0.023131669
202	0xbc655cda	-0.013999188
203	0x3cdb2a42	0.026753549
204	0xbd5dca28	-0.05414787
205	0xbc71ace7	-0.014750696
206	0xbd428dcc	-0.04749851
207	0xbd2002a4	-0.03906502
208	0xbc8d2aae	-0.017232265
209	0xbc34aabe	-0.011027036
210	0xbd416a14	-0.047220305
211	0xbd4a7c3f	-0.049434897
212	0xbcfbd5b6	-0.030741554
213	0x3c4f3487	0.012646801
214	0x3d342d72	0.043988653
215	0x3c25aa41	0.0101113925
216	0xbcd5c653	-0.026095545
217	0xbc9501fd	-0.018189425
218	0xbd6d0201	-0.05786324
219	0xbbeb9600	-0.0071895123
220	0xbd659003	-0.056045543
221	0xbc978a76	-0.01849864
222	0x3a74fb64	0.00093453215
223	0xbc0ca4fc	-0.008584257
224	0x3c65cae5	0.014025425
225	0xbc3d2977	-0.0115455305
226	0x3bf20e22	0.0073869387
227	0x3b0e7c2c	0.0021741493
228	0xbcc271b0	-0.023735851
229	0x3ca34290	0.0199292
230	0xbd17665f	-0.036962863
231	0xbd404701	-0.046942715
232	0xbc04bd67	-0.008101798
233	0xba8d0ae1	-0.0010760688
234	0xbd1ed698	-0.03877887
235	0x3cd90368	0.026490882
236	0x3cfeb094	0.031090058
237	0xbd316a51	-0.04331428
238	0xbd40ebd9	-0.04709992
239	0x3d219a10	0.039453566
240	0xbc8cf149	-0.017204897
241	0x3d192f83	0.037398826
242	0x3cfe1eb8	0.031020507
243	0x3c5ff830	0.013670012
244	0xbcd2468b	-0.025668403
245	0xbcfcdf83	-0.030868297
246	0xbd4ed853	-0.05049927
247	0x3d66ba46	0.056329988
248	0xbc7981bf	-0.015228688
249	0x3c866303	0.016404634
250	0xbd2affe8	-0.041747957
251	0xbc39a7b8	-0.011331491
252	0xbc9751b3	-0.018471574
253	0x3a242cfd	0.00062628073
254	0x3ce20c35	0.027593711
255	0x3c0eaf17	0.008708737

encoder.6.weight f4 [256]
0	0x3f48fa37	0.785068
1	0x3f63171e	0.8870715
2	0x3f331e9a	0.6996857
3	0x3f1f4572	0.6221534
4	0x3f2b37d7	0.6688208
5	0x3f513fd1	0.81738
6	0x3f6088d5	0.8770879
7	0x3f1917af	0.59801763
8	0x3f500708	0.8126073
9	0x3f523233	0.8210785
10	0x3f578105	0.84181243
11	0x3f5e4472	0.8682319
12	0x3f57f050	0.8435106
13	0x3f52e5fc	0.8238218
14	0x3f63049f	0.88678926
15	0x3f3bacf7	0.733108
16	0x3f57ea92	0.843423
17	0x3f313cf3	0.69233626
18	0x3f3c5f6a	0.7358309
19	0x3f6ed60f	0.9329538
20	0x3f4130af	0.7546491
21	0x3f5bd30d	0.8586891
22	0x3f4d9144	0.8029978
23	0x3f1a2bae	0.602229
24	0x3f5d5a9e	0.86466396
25	0x3f411d6a	0.7543551
26	0x3f5c5cff	0.860794
27	0x3f581038	0.8439975
28	0x3f2ce80f	0.67541593
29	0x3f4db86c	0.8035953
30	0x3f220c69	0.63300186
31	0x3f53b63b	0.82699937
32	0x3f2c358e	0.6726922
33	0x3f6959af	0.9115247
34	0x3f2e29b4	0.68032384
35	0x3f58855f	0.8457851
36	0x3f4484b8	0.7676501
37	0x3f5813b6	0.84405077
38	0x3f2efd5f	0.68355364
39	0x3f557cb1	0.8339339
40	0x3f3cb938	0.7372012
41	0x3f240b21	0.6407948
42	0x3f4c8db0	0.799037
43	0x3f544227	0.8291344
44	0x3f3f4ec3	0.74729556
45	0x3f374efa	0.71604884
46	0x3f2d344d	0.6765793
47	0x3f53903d	0.82641965
48	0x3f656d7e	0.89620197
49	0x3f662e3d	0.89914304
50	0x3f5eb3cb	0.8699309
51	0x3f3f56c1	0.7474175
52	0x3f0c3915	0.547746
53	0x3f5e3154	0.8679402
54	0x3f5ddb35	0.8666261
55	0x3f4d9b18	0.8031478
56	0x3f66f914	0.90223813
57	0x3f53af8f	0.82689756
58	0x3f410e5f	0.75412554
59	0x3f538e6c	0.82639194
60	0x3f09eafe	0.53874195
61	0x3f0a760a	0.54086363
62	0x3f5daaf3	0.8658897
63	0x3f09ca5d	0.53824407
64	0x3f5651de	0.8371867
65	0x3f49ae8c	0.7878196
66	0x3f3d6658	0.7398429
67	0x3f3e25b5	0.74276286
68	0x3f1fb438	0.62384367
69	0x3f5c5d5d	0.8607996
70	0x3f2ef0bb	0.68336076
71	0x3f3a336a	0.727347
72	0x3f2bc90b	0.6710364
73	0x3f4cfe32	0.8007537
74	0x3f5b30cc	0.85621333
75	0x3f3e7103	0.7439119
76	0x3f54a03d	0.83057004
77	0x3f4187f6	0.75598085
78	0x3f0e2652	0.5552722
79	0x3f45f2c6	0.7732357
80	0x3f5b9737	0.8577761
81	0x3f52c09e	0.8232516
82	0x3f59918d	0.8498772
83	0x3f2f05db	0.6836831
84	0x3f441dd3	0.7660801
85	0x3f34ba5f	0.7059688
86	0x3f39fc01	0.7265015
87	0x3f1711b1	0.5901137
88	0x3f3bff04	0.73436
89	0x3f35699d	0.7086428
90	0x3f291d57	0.66060394
91	0x3f58df88	0.8471608
92	0x3f4b0c61	0.79315764
93	0x3f5e0841	0.86731344
94	0x3f5afc85	0.85541564
95	0x3f567548	0.83772707
96	0x3f3aebd6	0.7301611
97	0x3f5fb330	0.87382793
98	0x3f58d560	0.84700584
99	0x3f54c296	0.83109415
100	0x3f12ed6d	0.57393533
101	0x3f5cb490	0.86213017
102	0x3f2e3f86	0.6806568
103	0x3f3f9ddb	0.74850243
104	0x3f49b7b9	0.78795964
105	0x3f5ac44a	0.85455763
106	0x3f601d41	0.8754464
107	0x3f5c8b1c	0.86149764
108	0x3f0a4c4f	0.5402269
109	0x3f4ad3e0	0.79229546
110	0x3f545287	0.82938427
111	0x3f111069	0.56665665
112	0x3f59e6bb	0.8511769
113	0x3f392d1b	0.7233445
114	0x3f5968df	0.84925646
115	0x3f6b2461	0.91852385
116	0x3f4d50a3	0.80201167
117	0x3f2dfec0	0.6796684
118	0x3f3afedc	0.73045135
119	0x3f541533	0.8284485
120	0x3f42a8bd	0.76038724
121	0x3f1a8db0	0.6037245
122	0x3f24b443	0.6433756
123	0x3f5d6f48	0.86497927
124	0x3f3c35da	0.7351967
125	0x3f63cf3b	0.88988084
126	0x3f1db766	0.6160797
127	0x3f25a625	0.6470664
128	0x3f5c732d	0.86113244
129	0x3f51f3c9	0.8201261
130	0x3f4ede65	0.808081
131	0x3f3f7fe0	0.74804497
132	0x3f287f1d	0.6581896
133	0x3f4ec15d	0.807638
134	0x3f467df3	0.77535933
135	0x3f38e87d	0.7222975
136	0x3f5ad684	0.85483575
137	0x3f10f48d	0.56623155
138	0x3f4daa94	0.80338407
139	0x3f530a77	0.82437843
140	0x3f54d445	0.831364
141	0x3f471434	0.777652
142	0x3f419e15	0.7563184
143	0x3f640f32	0.89085686
144	0x3f4ea2cd	0.80717164
145	0x3f574437	0.8408846
146	0x3f5807c2	0.8438684
147	0x3f5cabba	0.86199534
148	0x3f5defb9	0.8669391
149	0x3f3a17ed	0.7269276
150	0x3f60b7d8	0.87780523
151	0x3f452c70	0.7702093
152	0x3f4bfda4	0.796839
153	0x3f233bc3	0.63763064
154	0x3f478bbe	0.77947605
155	0x3f44b448	0.7683759
156	0x3f4da445	0.8032878
157	0x3f60a81e	0.87756526
158	0x3f547ba9	0.8300119
159	0x3f2bb65e	0.67075145
160	0x3f43c583	0.76473254
161	0x3f09d31e	0.53837764
162	0x3f44d02b	0.7688014
163	0x3f5faef9	0.8737636
164	0x3f42b9cc	0.76064754
165	0x3f5d1eec	0.8637531
166	0x3f5ff5c0	0.8748436
167	0x3f64db51	0.8939715
168	0x3f5a3f4b	0.8525283
169	0x3f41fc13	0.7577526
170	0x3f11c392	0.5693904
171	0x3f659408	0.89679
172	0x3f14dca5	0.58149177
173	0x3f3ff82f	0.74988073
174	0x3f0ce09a	0.55030215
175	0x3f45b867	0.772345
176	0x3f38d1ba	0.7219502
177	0x3f64c8f6	0.8936914
178	0x3f39d3da	0.72588885
179	0x3f1cfe12	0.6132518
180	0x3f16d39e	0.5891665
181	0x3f32a638	0.6978488
182	0x3f5400c4	0.8281367
183	0x3f4f0709	0.8087011
184	0x3f429398	0.7600646
185	0x3f5c7725	0.861193
186	0x3f3b4eff	0.73167413
187	0x3f381e1e	0.71920955
188	0x3f4d8d01	0.8029328
189	0x3f14aae5	0.58073264
190	0x3f487e32	0.7831756
191	0x3f3346fe	0.700302
192	0x3f1654af	0.58722967
193	0x3f285bd3	0.6576511
194	0x3f0baf9e	0.54564846
195	0x3f32ee47	0.6989483
196	0x3f49fcc8	0.7890134
197	0x3f46c801	0.7764893
198	0x3f688b8a	0.9083792
199	0x3f5d6448	0.8648114
200	0x3f4b0b68	0.7931428
201	0x3f6101d2	0.878934
202	0x3f5d12c5	0.86356765
203	0x3f5a7a4f	0.8534288
204	0x3f680dfe	0.9064635
205	0x3f10ccb0	0.5656233
206	0x3f5898f0	0.84608364
207	0x3f4a4f6a	0.79027426
208	0x3f41945a	0.7561699
209	0x3f0c03d7	0.5469336
210	0x3f515abf	0.8177909
211	0x3f60a778	0.8775554
212	0x3f67cbf6	0.90545595
213	0x3f0f446f	0.55963796
214	0x3f53f55f	0.8279628
215	0x3f4d7c45	0.80267745
216	0x3f0a1ca8	0.53949976
217	0x3f6556aa	0.89585364
218	0x3f4fe187	0.812035
219	0x3f244911	0.6417399
220	0x3f51cff0	0.8195791
221	0x3f5e8b20	0.8693104
222	0x3f2cb77d	0.6746748
223	0x3f57137b	0.840141
224	0x3f5a52b0	0.8528242
225	0x3f3ed892	0.7454921
226	0x3f0f4187	0.5595936
227	0x3f563f83	0.8369066
228	0x3f5ce98c	0.86293864
229	0x3f4c5813	0.7982189
230	0x3f258ed2	0.6467105
231	0x3f5813e2	0.8440534
232	0x3f606485	0.8765338
233	0x3f1afac8	0.6053891
234	0x3f5b6bc5	0.8571132
235	0x3f1413df	0.5784282
236	0x3f0d9fce	0.5532197
237	0x3f4cb7bd	0.7996786
238	0x3f6044b9	0.8760486
239	0x3f2c4154	0.6728718
240	0x3f53025b	0.8242547
241	0x3f611283	0.8791887
242	0x3f1891c0	0.59597397
243	0x3f2399f2	0.63906777
244	0x3f4789ab	0.7794444
245	0x3f4dc678	0.80380964
246	0x3f39eb9c	0.72625136
247	0x3f5b467f	0.85654444
248	0x3f5342a9	0.8252359
249	0x3f639aac	0.88907886
250	0x3f46d408	0.77667284
251	0x3f4bc65c	0.7959955
252	0x3f5523fe	0.83258045
253	0x3f62c0d2	0.8857547
254	0x3f59af99	0.85033566
255	0x3f48aeef	0.7839193
