data/best_performed_model_pbt_precision.pth (torch, 961355 bytes, 30 tensors)

encoder.0.weight f4 [256, 46]
000000 e4 a4 87 bc 2e a8 2a bd 88 eb bf 3c bd 93 98 3b
       -0.016558118 -0.041664295 0.02342774 0.0046562837
000010 1f b4 68 bc d7 23 14 3b 1c a4 a1 b8 dd c9 eb 3b
       -0.0142031 0.002260437 -7.707646e-05 0.007195695
000020 55 b5 ae 3c fc d6 3b 3d 1e c9 18 3b 04 8c 7e bb
       0.0213267 0.045859322 0.0023313235 -0.003884078
000030 f6 2c 4a ba 43 e4 45 bb dc db 36 ba 44 38 68 3c
       -0.0007712388 -0.003019587 -0.00069755106 0.014173571
000040 b8 6e 5e ba c8 a8 bd bc 60 e8 be 3c 9a a3 8b bb
       -0.00084851263 -0.02315177 0.023304164 -0.004261446
000050 36 d1 55 bc e4 9c c5 ba 8b 7d 8e ba 51 f8 83 3c
       -0.013050368 -0.0015076664 -0.0010871155 0.016109617
000060 92 99 3f bd fb d7 60 bb 1f cc 82 b9 92 a2 fb bc
       -0.046777315 -0.0034308422 -0.00024947614 -0.030717168
000070 a1 c6 52 bb 08 a9 e7 bb 64 85 e4 bb 98 83 bb 3c
       -0.003216185 -0.0070697106 -0.006973909 0.022889897
000080 9b 57 d6 ba 03 cd e1 bb 7f 28 8e 3a f6 13 ac 3b
       -0.0016353013 -0.0068908944 0.0010845809 0.005251403
000090 45 c2 86 bb 7a ce 01 bd 31 cf 01 3d 1f 15 b6 3a
       -0.004112514 -0.031691052 0.031691734 0.0013891793
0000a0 b1 41 e6 bc ef a3 04 3d ec 57 8d 3c 61 73 dd bc
       -0.028107496 0.0323829 0.017253838 -0.027032556
0000b0 38 3c d0 3c a4 73 05 3c de 53 84 3c 32 17 d1 3c
       0.02541934 0.008145247 0.016153272 0.025523756
0000c0 90 1a 24 bd 49 d8 17 3c e4 e6 24 bb d2 79 ae 3b
       -0.040064394 0.009267875 -0.0025162036 0.0053245807
0000d0 65 61 9f bb 42 fe 01 3c e6 d6 85 bc 1d 99 87 3c
       -0.0048639053 0.007934155 -0.016337823 0.016552502
0000e0 31 f5 6b 3a 44 17 ee 38 9e 51 50 bb 11 df 52 39
       0.0009001075 0.00011353058 -0.003178693 0.0002011026
0000f0 ba 42 1b 3c 69 eb 55 bc 6b 9e 1f 39 6c 2b 3a 3c
       0.009476358 -0.013056614 0.00015222437 0.011362892
000100 86 97 b1 3c 3c ff 8e ba d6 72 b0 bb 2c e1 d7 bb
       0.021678697 -0.0010909806 -0.0053847833 -0.006588122
000110 5f e4 66 3a d3 06 58 3b d4 4f 99 bc cc 3d 4b 39
       0.00088078337 0.0032963052 -0.018714823 0.0001938261
000120 f8 60 21 3b f9 ce c0 bc 31 c8 b8 39 33 eb 9c bb
       0.0024624448 -0.023536192 0.0003524437 -0.00478878
000130 76 28 48 bc 68 6a 0c bc a0 23 de 39 60 a6 dd bb
       -0.012216678 -0.008570291 0.00042369682 -0.006764218
000140 c8 7e d7 3a 32 c3 87 3b e4 b2 59 3b 5a 3e 02 3c
       0.0016440982 0.004143142 0.00332182 0.007949436
000150 6d 0e b9 bb 11 34 1a 3c 6d ba 10 bc f6 53 44 bc
       -0.0056474716 0.009411828 -0.00883351 -0.0119829085
000160 d0 d7 7b 3c 9b ed 01 ba 6d 07 a7 bb 29 ab ab 3c
       0.015371278 -0.00049563654 -0.005097321 0.020955639
000170 85 75 19 3c eb 07 aa 3a 7b 9c 3f 3a 55 10 97 3a
       0.009366398 0.001297233 0.0007309389 0.0011525253
000180 64 37 18 ba 3d e8 91 b9 51 f6 07 ba a6 36 8b ba
       -0.00058065937 -0.00027829586 -0.00051865453 -0.0010621145
000190 42 39 e1 3b a7 7b ff b7 e0 59 12 ba 80 c8 0d 3b
       0.0068732807 -3.0455949e-05 -0.00055828504 0.00216344
0001a0 f7 ac 12 3b 6c 5a a4 b8 e0 53 c8 ba 94 b6 97 b9
       0.0022380927 -7.836972e-05 -0.0015283786 -0.00028936996
0001b0 3a 71 91 b9 ca 33 00 3b 88 be 27 3b 22 2b fd 38
       -0.00027740916 0.0019562119 0.0025595743 0.00012072014
0001c0 b2 b0 ac ba a2 c3 a6 3b 42 5c 9e b9 11 af af ba
       -0.0013175218 0.005089239 -0.00030204846 -0.0013403614
0001d0 b7 82 d2 3a 9c 91 32 b9 d5 1b 20 ba c4 98 a4 3b
       0.0016060685 -0.00017029647 -0.0006107663 0.005023094
0001e0 b3 8b a7 b9 d1 62 b9 38 4e 16 8d ba 94 6a 16 3a
       -0.00031956806 8.8398934e-05 -0.0010764094 0.0005737927
0001f0 e1 cc 86 b8 77 e9 c4 3a 2b 42 68 3a 47 3c 66 3a
       -6.4277796e-05 0.0015023191 0.00088599575 0.0008782786
000200 26 10 06 3a a7 16 1b 3a e4 1e f3 ba 97 f3 78 3b
       0.00051141006 0.0005916156 -0.0018548635 0.0037986988
000210 4a d9 4b 3b f9 8f 83 3a 2a cd 9d 3b 6b a9 0b 39
       0.0031104856 0.0010037414 0.004815717 0.00013319186
000220 92 a3 f8 3a 51 8b 18 ba 15 dc c5 3c 39 93 dc bc
       0.0018969646 -0.00058190996 0.024152795 -0.02692567
000230 e1 ca 8d 3c 5f 5c 44 3b fe 0d 07 bb 59 15 ea 3c
       0.017308654 0.0029962284 -0.0020607705 0.028574632
000240 1d 43 fb bb bb f7 a6 3a f5 a4 f8 3c 4b 22 10 3c
       -0.0076679126 0.0012738624 0.030352095 0.008797239
000250 38 85 5a ba 65 b7 48 3b df fa ca ba f3 3d be ba
       -0.0008335891 0.003062689 -0.0015486142 -0.0014514312
000260 b8 06 bc 3b e0 b8 aa bb cb d0 86 3b 68 bc ee bb
       0.0057381056 -0.005210027 0.0041142455 -0.0072856434
000270 aa 9b bc bb 14 8e 74 3b 5c a8 f3 bb e7 96 00 3d
       -0.0057558613 0.003731613 -0.0074358415 0.03139391
000280 93 94 33 bb 9c fd 25 bc d0 e8 13 3c 2d c9 28 3b
       -0.002740179 -0.010131266 0.009027675 0.0025754676
000290 4d f9 53 3c 14 ba b6 bc 49 17 9e 3a 58 d7 6d 3b
       0.012937856 -0.022305526 0.0012061383 0.0036291685
0002a0 e4 9e 79 3c 34 99 af bc 15 76 7e 3a 3d 1a 2f bc
       0.015235636 -0.021435358 0.00097069266 -0.010687408
0002b0 ca ed 20 ba 63 18 5b 3c 87 80 d8 bb 99 f3 0f 3c
       -0.0006138949 0.013372513 -0.0066071185 0.008786106
0002c0 ed 67 83 ba c9 2e 93 3c d4 6a 48 3c 89 44 1c bc
       -0.0010025479 0.017966645 0.012232501 -0.009537824
0002d0 ec 3f 1a bd 4c 69 cd 3b fe 66 c0 3c c8 d2 92 bc
       -0.037658617 0.006268656 0.02348661 -0.017922774
0002e0 23 0d 93 3d 0e 44 9e bd e7 eb 71 3d cd 17 c0 bc
       0.0718024 -0.07727824 0.059062865 -0.02344885
0002f0 8c 90 63 3d ff ad 2c bd 00 aa 1a 3d d8 c7 a9 3d
       0.055557773 -0.042158123 0.03775978 0.0829007
000300 da 4d b9 3b 7b e5 77 3d 08 7f 1a 3d 69 5c 45 3d
       0.0056550326 0.060521584 0.037718803 0.048183832
000310 a2 19 38 3d 06 e8 78 bc b5 f3 93 3d 6e 85 ca 3d
       0.04494632 -0.015192037 0.07224218 0.09888731
000320 5a b6 06 bd b2 fe 2f bd 88 06 60 3b 50 a9 1b bd
       -0.032888748 -0.042967506 0.003418358 -0.038003266
000330 cd 90 aa 3c 89 65 dd 3d 53 10 0c bb 3a d6 4c bd
       0.020821 0.10810382 -0.0021372035 -0.05000899
000340 da 11 b7 bd e2 2c 14 3d e3 7c 0a bc b5 71 86 bb
       -0.08938952 0.036175616 -0.008452627 -0.0041029104
000350 08 30 21 bd 7a 28 96 3d 23 6f 87 bd a3 04 ce bc
       -0.039352447 0.07331939 -0.066129945 -0.025148695
000360 d6 9f c5 bc 5c a8 b9 3c 03 d7 86 3c e0 a6 64 bd
       -0.024124067 0.022663288 0.016459947 -0.055823207
000370 2f 24 c8 bc 1f a2 a1 bd e3 dd c9 bd 9e f9 74 3c
       -0.024431316 -0.0789225 -0.09856775 0.0149520915
000380 a5 24 71 bd 3a e9 29 bd 82 b2 45 3d 9e 9c 7a bc
       -0.058872838 -0.041482188 0.04826594 -0.0152961295
000390 41 87 81 3d fa c4 3f 3d e1 bc cd bd b8 c8 ad 3d
       0.06324626 0.04681871 -0.100457914 0.0848555
0003a0 fe 58 a7 bd a2 89 51 bd f7 e9 3b 3d 4c f7 aa 3d
       -0.08171271 -0.051156648 0.045877423 0.083479494
0003b0 1d 12 21 bd 5e e6 af 3a 14 3d 53 bd 55 6e 90 3d
       -0.039323915 0.0013420095 -0.05157192 0.07052294
0003c0 e4 a0 1b bd ac 8c 97 bd 92 3c b4 3c 09 7b 52 3d
       -0.037995234 -0.07399878 0.022001538 0.051386867
0003d0 27 19 40 bd cb 3b 88 bc dd 3f 84 bd 49 fa 6a 3d
       -0.046898987 -0.016630074 -0.064574935 0.057367597
0003e0 d8 28 a1 3d 0a 86 c7 bb c4 8f af ba fe 9b a5 bd
       0.078691185 -0.0060889767 -0.0013394286 -0.08086394
0003f0 c8 43 6b bc f4 cb 96 3d 3a c9 b4 3c 5c 14 e3 3c
       -0.014359422 0.0736312 0.022068609 0.027719669

encoder.0.bias f4 [256]
000000 b0 61 ff bb 9d a5 f7 3c f0 f5 df bb 64 c2 c3 3c
       -0.0077936277 0.030230338 -0.006834738 0.023896404
000010 64 07 0b 3d 14 ba 35 3d 09 33 e6 bd b7 d2 78 3d
       0.033942595 0.04436691 -0.11240203 0.06074783
000020 e5 85 1e bd 11 91 21 bd 2f c8 25 3b 51 52 ef 3c
       -0.03870191 -0.039444987 0.002529632 0.029214056
000030 43 4d 81 bd 56 d7 86 bd d0 1f 6c b9 37 6a b8 bb
       -0.06313565 -0.06584041 -0.00022518565 -0.005627896
000040 c6 2e 4f 3c 62 87 03 3b de 72 bb 3d 44 42 91 3d
       0.012645429 0.0020069708 0.091527686 0.07092717
000050 6b 2e 48 3c 75 65 5c 38 e6 33 76 3c 51 79 8d bd
       0.012218098 5.2546577e-05 0.015027022 -0.06907905
000060 45 27 7f 3c 8e df 86 3c e1 eb 4a 3d b0 30 e0 3d
       0.015573327 0.016464021 0.049541358 0.109467864
000070 55 6d b2 bd 5d db da 3d 6d 4f 00 3d d7 95 02 bc
       -0.0871226 0.106863715 0.031325746 -0.007970295
000080 85 a7 c7 bd 11 af 2c bd b6 43 95 bb 95 87 88 3d
       -0.09748749 -0.042159144 -0.004555191 0.06666485
000090 6b a5 88 3c f3 46 7e bd 55 49 46 3b 76 ec 11 bd
       0.01668044 -0.06207938 0.0030256112 -0.035625897
0000a0 fc 0f 33 bc 41 94 ec bd 6d c1 bd 3d 95 e8 a4 bb
       -0.010929104 -0.11551715 0.09265409 -0.0050326088
0000b0 bc 0c c0 bc 1d 53 02 bc 54 7c bd 3c ba 3f d5 bc
       -0.023443572 -0.007954386 0.023130573 -0.026031364
0000c0 a7 cf 4f bc d7 4d 9a 3c 02 45 05 ba 5b a7 3b 3d
       -0.0126837855 0.018835945 -0.00050838303 0.0458139
0000d0 85 31 5d bd 64 98 3d bd ea 48 83 bd c0 1c a0 bb
       -0.054002304 -0.04628791 -0.06410392 -0.0048862398
0000e0 97 30 33 bc 5e 0a 12 bd a4 92 53 3c 79 e4 20 bd
       -0.010936878 -0.03565442 0.01291338 -0.03928039
0000f0 e3 23 cd bb 49 bb 2e 3c d2 8f 84 bd 4c 64 c7 3c
       -0.0062603815 0.010664769 -0.06472744 0.024339817
000100 c3 c8 25 bd 49 69 10 3d c7 46 b5 3d 63 1b 25 bb
       -0.040474664 0.035256658 0.0885139 -0.0025193326
000110 4e ee 16 3c c8 a3 ac 3d 84 e6 9e 3b 5c 84 bf 3d
       0.00921209 0.08429676 0.004849257 0.093514174
000120 75 56 a4 3d 0c 60 2c 3d 98 9b 9e 3c c7 62 de 3c
       0.08024303 0.042083785 0.019361302 0.02714671
000130 b6 45 23 bb da fe 82 3d 03 ce 01 3d 8b 7e 1a bc
       -0.0024913377 0.06396265 0.03169061 -0.009429584
000140 04 43 ad 3c 81 f5 ea 3c 60 99 ba bd 67 35 a4 bd
       0.02115012 0.028681519 -0.09111285 -0.08017998
000150 5e d6 3a 3b 64 64 33 bd 21 a4 6b 3c 14 7b 23 3d
       0.002850912 -0.04379691 0.014382393 0.0399123
000160 24 6a 2a 3d b9 36 75 bb a5 67 41 bc 95 e2 36 3d
       0.04160513 -0.003741665 -0.011804496 0.04464968
000170 ee e1 44 3b 5f 2d 3e bd 70 81 6b 3d b1 d1 8e bc
       0.003004189 -0.046429988 0.057496488 -0.017433973
000180 cc f5 36 bc 4a 9e aa 3b 3c 8d 79 3c 56 ac 82 3c
       -0.011167001 0.005206858 0.015231427 0.015951317
000190 bd 54 44 3d 63 93 b2 3c 13 a5 f6 3c a6 2b 12 3d
       0.047932375 0.021798795 0.03010801 0.035686158
0001a0 ea a4 13 bd e7 71 ff 3c 51 4c 7f bd c6 99 a0 3d
       -0.036045946 0.031182243 -0.06232864 0.0784183
0001b0 14 a9 61 39 c8 6f 1e 3c c4 07 ab bd 51 e3 95 3d
       0.00021520659 0.009670205 -0.083510906 0.07318748
0001c0 3c 35 e8 bc b7 85 ed bc 78 c5 a8 bb 28 4a 7b 3b
       -0.028345697 -0.028994424 -0.0051504932 0.003834376
0001d0 2f 46 b8 bd 42 b7 2f 3d 1b 9f 87 bd d9 bb 65 3d
       -0.089977615 0.042899378 -0.06622144 0.05608735
0001e0 a7 90 e8 bc 39 31 52 bd 97 c3 0c bc 69 bf 14 bc
       -0.028389288 -0.051316474 -0.008591554 -0.009078839
0001f0 c0 f1 37 3d 0f 1b f4 3d 85 cd e1 3d 8a a0 da 3c
       0.044908285 0.119192235 0.11025528 0.02668788
000200 47 31 2f 3c 69 8f cb 3b cd 05 03 bc 08 5c 0d bb
       0.010692901 0.006212164 -0.0079969885 -0.0021569747
000210 e5 a1 0d bc 6e 25 f9 3b ce 03 ee bb 4b ad 55 bd
       -0.008644556 0.007603339 -0.007263637 -0.05216722
000220 c0 f6 8c bc 2f 8b 10 3c d8 e7 94 bd dc 07 f8 bc
       -0.017207503 0.008822246 -0.07270783 -0.030277185
000230 40 08 61 bd bd ea 15 3d 1e 7b e9 bc c4 6e 00 3d
       -0.05493951 0.036600817 -0.02850109 0.031355634
000240 2f 92 62 3d c2 32 c9 3b 69 59 d4 3c 0d 9a f3 bc
       0.055315193 0.006140084 0.02592154 -0.029736543
000250 d2 9b 98 bb 29 6c 4d bd e0 10 a8 bd ea ac 54 3d
       -0.004657247 -0.050151978 -0.08206344 0.051922716
000260 f7 08 d5 3c 8d 61 7f 3d b3 94 40 bd d3 df 1a 3d
       0.026005251 0.06234889 -0.04701681 0.03781111
000270 6c 4a 0a 3c 85 d0 83 3d ea f9 86 bc 19 9b ec 3d
       0.008440595 0.06436256 -0.01647659 0.1155302
000280 28 29 46 bd ee 61 f7 3c 11 69 9b bd 1e e3 1c ba
       -0.048379093 0.030198064 -0.07588399 -0.0005984771
000290 bf 90 00 bd 9a d3 76 3b 2b b0 3e bd c4 79 59 bb
       -0.03138804 0.0037662745 -0.046554726 -0.003318415
0002a0 26 4a a7 bd dd d2 f1 3c 77 7e 4e bd 38 40 ec bc
       -0.081684396 0.029519493 -0.050413575 -0.028839216
0002b0 6f b1 84 bd 11 ac 19 bd 61 f0 79 bc c2 de 8d 3c
       -0.06479155 -0.03751761 -0.015255065 0.017318133
0002c0 67 fd 9d bc 59 76 b7 bc 48 dc 73 bd 45 a5 01 3d
       -0.01928587 -0.0223953 -0.05953625 0.031651754
0002d0 c7 09 a3 bd b7 69 b8 3b 69 53 10 3d b7 60 ea bc
       -0.07960849 0.0056278366 0.035235796 -0.02861057
0002e0 55 35 ff 3b f7 9e 45 bd 18 59 4a 3d 10 a1 64 3d
       0.00778834 -0.048247304 0.049401373 0.055817664
0002f0 75 89 00 3d 46 de ae 3d c9 da a7 bd 63 fd 4d bd
       0.03138109 0.08538489 -0.08196027 -0.050290477
000300 8c 37 e3 3c 28 12 0a 3d f3 65 07 3d d1 c1 d9 3b
       0.027736448 0.03370872 0.03305621 0.006645419
000310 b4 e2 30 3d d8 a1 10 bd b8 8a ba 3b 77 e9 ac 3c
       0.04318495 -0.035310596 0.005692806 0.021107418
000320 89 1a 4f bd 63 1e c2 bc 54 ca 8a bd 00 e1 34 bd
       -0.050562415 -0.02369613 -0.06776872 -0.04415989
000330 a9 1f 10 3d c4 c2 a0 3c f9 29 80 bd e9 e8 45 bd
       0.035186443 0.019624121 -0.06258006 -0.048317824
000340 1c 82 17 bd 36 79 b4 b9 4a f4 33 bd f7 85 e1 3c
       -0.036989316 -0.00034422585 -0.043934144 0.0275297
000350 ea 85 9a 3d e2 85 76 3d 9a c3 92 bb a9 12 79 3c
       0.07545073 0.060186274 -0.004478884 0.015202203
000360 c3 3d ac 3c 7e 75 40 3c 89 26 3f 3d bd 3e 2b 3d
       0.021025544 0.011746762 0.04666761 0.04180788
000370 1f 75 76 3d db a7 1b 3d 4e 94 d0 bc 45 97 a0 3d
       0.06017029 0.038001876 -0.025461342 0.078413524
000380 6f 9d 98 bd 79 04 dd 3b 46 e9 8e 3d 73 b5 ae bd
       -0.07451903 0.006744918 0.06978087 -0.085307024
000390 af 9c 5a bd 0d f0 94 bd 64 c4 ab bc 78 ff 77 3d
       -0.05337208 -0.072723486 -0.02096767 0.06054637
0003a0 1a cc 2c 3d 3e f2 e2 3c 3e d9 14 3d 02 f8 a5 3d
       0.042186834 0.0277034 0.03633999 0.08103944
0003b0 5b 01 ca bc 24 e7 1c bb 23 d4 c5 3c 68 59 a6 bd
       -0.02465885 -0.0023941481 0.024149006 -0.08122522
0003c0 b6 97 2b 3d 72 6f 8a 3d 61 64 d2 3c a6 a2 8a 3d
       0.04189273 0.06759538 0.02568263 0.06769304
0003d0 5d 20 20 bb f0 b2 bc 3d 04 a1 a2 bb b5 34 f4 bb
       -0.0024433353 0.09213817 -0.004963042 -0.007452572
0003e0 e4 fc 12 bd 94 4d c8 bc e7 17 1b 3d 8b 9a 63 bd
       -0.035885707 -0.024451055 0.037864592 -0.055567306
0003f0 80 31 0a bd 5c 64 1c 3d d5 9e a8 3c 3c 17 3f bd
       -0.033738613 0.038181648 0.02058355 -0.046653017

encoder.2.weight f4 [256]
000000 3b 5a 0e 3e ea b5 80 3d ab 3f 79 37 4b 10 a2 3d
       0.13901608 0.06284697 1.485638e-05 0.07913264
000010 b5 20 ec 3e d7 ec 1a 3f d9 90 da 3e cb f9 64 3e
       0.46118703 0.6051764 0.42688635 0.22360913
000020 b9 da 67 3e 4b 4d f6 3e e2 09 59 39 64 c0 97 3d
       0.2264203 0.48105845 0.00020698414 0.074097425
000030 ed e5 c7 3e 9a 01 09 3f ac bc b4 3d c0 25 89 39
       0.39042607 0.5351807 0.08825049 0.00026158802
000040 79 09 57 3e d2 7e 99 3e fe 24 a7 3e f0 90 0c 3f
       0.20999707 0.2997957 0.3264541 0.5490866
000050 90 ba 62 3e 90 51 90 b5 ff c2 24 3f e6 86 b9 3e
       0.2214148 -1.0752574e-06 0.6436004 0.36235732
000060 55 43 57 3c 7c c6 93 3e 69 5a 9b 3e b4 82 e6 3e
       0.013138612 0.2886237 0.30342415 0.45021594
000070 e9 4e 02 3f 4d e2 d2 3e 4d 52 42 3d 97 21 83 3e
       0.5090166 0.4118828 0.04744177 0.25611565
000080 e6 82 07 3f 76 75 9b 3d ca 6b 76 b9 03 d7 bb 3e
       0.5293411 0.07590763 -0.00023500543 0.36687478
000090 e3 64 6e 3e bc 5f 01 3f 58 a0 73 3e b7 e4 68 3e
       0.23280673 0.50536704 0.23791635 0.22743498
0000a0 cc ff ed 3e cf 59 02 3f 29 06 da 3e 4c 4b 28 ba
       0.4648422 0.5091829 0.42582825 -0.00064199115
0000b0 dd 23 be 3e 5b e1 0c 3f 04 64 0a 3e 7d 66 ed 3e
       0.37136737 0.55031365 0.13514715 0.46367255
0000c0 9a 7e 7e 3e f0 e2 dc 3e ef 24 e8 3e ca ef 74 3e
       0.24852982 0.4314189 0.45340678 0.23919597
0000d0 0a 91 10 3f 51 be b3 3e 8e bf 0c 3f b6 58 2e b9
       0.5647131 0.35106137 0.5497979 -0.0001662698
0000e0 28 2f be 3e 47 22 cd 3e 9c 77 b6 3d ef af 9d 3e
       0.37145352 0.40065214 0.089095324 0.3079829
0000f0 e7 8d a0 3e d3 d6 63 3d 0f c5 21 3f 0f c0 12 3c
       0.31358263 0.055624794 0.6319131 0.008956923
000100 69 5b 81 3e c9 0e d3 3e 06 7e e9 3e 71 0f 8f 3d
       0.25265053 0.41222218 0.4560396 0.06985367
000110 a7 40 9b 39 5f e2 ed 3e d3 87 b6 3c f1 75 f4 3e
       0.00029612074 0.4646177 0.022281563 0.47746232
000120 61 9a d8 3e f0 48 f6 3d 45 8b d8 3d 78 6e 92 3e
       0.42305282 0.120256305 0.105734386 0.28599906
000130 16 2c 07 b9 54 01 3e 3e 07 6a 26 3e 30 f1 07 3c
       -0.00012891027 0.18555194 0.16251384 0.00829725
000140 16 70 61 3e 32 f2 91 3e 10 b9 8b 3e 89 68 ed 3e
       0.22015414 0.28505093 0.2728963 0.46368816
000150 e7 ff 08 3a fd 5b a9 3e e4 8e 12 3f cf 85 06 3f
       0.00052261207 0.33077994 0.57249284 0.52547926
000160 8d cb 1a 3f b1 a9 27 3a ca 7e 28 36 cc c5 1a 3f
       0.60466844 0.00063958304 2.5107752e-06 0.60458064
000170 29 c0 2d 3d 08 2e fd 3e 46 0c 95 3e bb c6 ed 3e
       0.042419586 0.49449182 0.29110926 0.46440682
000180 fb 3c f5 3d 9d ea 9f 3e 44 0a f4 3e ee 3b 26 3f
       0.11974522 0.31233683 0.47664082 0.64935195
000190 67 9d e3 3e c7 89 10 3d 2a e7 a3 3e 19 0d a9 3e
       0.44456026 0.035287645 0.32012302 0.33017805
0001a0 c9 ff cb 3e 83 42 21 3e 33 2b 03 3f 70 86 ee 3e
       0.39843586 0.15748028 0.5123779 0.46586943
0001b0 04 6d 8e 3e 59 b7 4c 3e a6 dd aa 3e f5 ad f2 3e
       0.27817547 0.19991817 0.3337223 0.47398344
0001c0 e8 d2 95 3d b0 da af 3d 38 91 4c 37 83 d3 00 3e
       0.07315618 0.08586633 1.2193159e-05 0.12580685
0001d0 a2 c5 11 3f ee 62 e8 3e 99 0b b4 3e 03 cc a7 3e
       0.5694219 0.45387977 0.35165098 0.32772836
0001e0 b1 61 24 3e 68 3c 07 3e 74 a1 9e 3c 26 2e 0a 3e
       0.16052891 0.13206637 0.019364096 0.13494167
0001f0 12 c6 05 3f dd 04 fa 3e e0 ab 2a 3f 99 b9 56 3e
       0.52255356 0.48831835 0.6666851 0.20969237
000200 71 3c 11 3c 69 37 4a 3e 50 e1 50 b7 f9 14 d0 3e
       0.008864508 0.197477 -1.2450226e-05 0.40641
000210 de 29 a1 3d a5 75 46 3e c9 44 01 3f 74 24 1b 3e
       0.07869314 0.19380815 0.5049558 0.15150625
000220 c9 72 de 3e ce 30 3e 34 1d c6 8c 3e df 28 f5 3e
       0.4344695 1.7712884e-07 0.27494898 0.47882745
000230 0c 49 1d 3e e4 25 f9 3d 5c cb 82 3e fe bc 81 3e
       0.15359896 0.1216543 0.25545776 0.25339502
000240 77 8a 42 3e 73 c1 82 3e 78 89 17 3e 51 e2 65 3d
       0.18998133 0.25538215 0.14798534 0.056124035
000250 53 90 af 39 93 6e 2d 3e b3 27 97 3e c9 b9 db 3e
       0.0003348613 0.16936712 0.29522476 0.4291518
000260 37 e0 71 3e f7 35 b6 3e 95 e4 22 3e d9 11 46 3e
       0.23620687 0.35588047 0.1590751 0.19342746
000270 e2 b6 3a 3e 84 07 a5 3e dc 80 35 3c 87 ec 3a 3f
       0.18233827 0.32232296 0.011078086 0.7301716
000280 13 7f db 3e 6e f0 94 3e 42 8d 12 3f 0f b6 99 3e
       0.42870387 0.29089683 0.5724679 0.30021712
000290 5c 12 80 3e ba 0a 6a 3e e8 bd c9 3e 63 b7 93 b6
       0.25014007 0.22855654 0.394027 -4.4022904e-06
0002a0 db bd c1 3e 37 9e 3a 3e c0 8f fc 3e 9a 57 76 3e
       0.3784016 0.18224417 0.49328423 0.24056855
0002b0 4a a2 be 3e 5f 46 1c 3e 0b 8f 21 ba a0 34 35 3a
       0.37233192 0.1526122 -0.00061629777 0.0006912444
0002c0 14 9b 27 3e 47 bb cf 3e 7c 1c 11 3f 0b 5a 15 3e
       0.16367751 0.4057257 0.5668409 0.1458513
0002d0 e5 d1 b1 3e 19 c0 9d 3e 50 17 96 3e f6 35 d7 3e
       0.3473045 0.3081062 0.2931466 0.42033356
0002e0 0f d8 a0 3e 63 3e 95 3e f8 68 23 3e 1f 2a 04 3f
       0.3141484 0.2914916 0.15958011 0.5162677
0002f0 7e 9e f0 3e 2c 2e 28 3f 68 87 0c 3f b5 e4 03 3e
       0.4699592 0.6569545 0.54894114 0.12880214
000300 d8 32 ef 3e e9 68 70 3e 02 11 ac 3e 2b e2 9f ba
       0.46718478 0.2347752 0.33606726 -0.0012198141
000310 ca af cc 3e cc a6 d0 3e 43 b1 4f 39 7f be 04 3f
       0.39977866 0.40752256 0.00019807093 0.51853174
000320 93 1a 82 3e 1b d5 cd 3e 2a df 66 3e 96 6e d2 3e
       0.254109 0.4020165 0.22546068 0.41099995
000330 cd cf 97 3e d4 4d 3a 3d ee d5 7f 3e 09 f5 cf 3e
       0.29650727 0.04548438 0.24983951 0.40616634
000340 d6 16 9e 3e b2 cb 17 35 18 1d be 3d 55 0b e4 3e
       0.30876797 5.65483e-07 0.09282893 0.44539896
000350 70 01 b3 3e a0 d9 19 3f 49 7f 51 b7 cf df 68 3e
       0.34962034 0.60097694 -1.2487007e-05 0.22741626
000360 a0 95 02 3f 42 95 1f 3a 60 38 28 3e 37 93 da 3d
       0.5100956 0.000608761 0.16427755 0.1067261
000370 42 33 b5 3e eb 94 0e 3f 87 ec 1b 3f b4 60 ef 3e
       0.3539067 0.5569598 0.6090779 0.46753466
000380 6f 40 d5 3e 28 92 11 3e 41 a4 2f 3f 1c 77 05 3f
       0.4165072 0.1421591 0.68610007 0.5213487
000390 d3 da eb 3e 88 85 ce 3e 5b f3 62 3e 8c 98 b1 3e
       0.46065387 0.4033625 0.22163145 0.34686697
0003a0 6b 76 10 3f 9c 51 5a 3e 2a 3a 08 3f 70 d9 ca 3e
       0.5643069 0.21320194 0.5321375 0.39619017
0003b0 d9 91 0a 3e 26 92 f6 3d a9 d2 5e 3d a8 39 cb 3e
       0.13532199 0.12039594 0.05440012 0.39692426
0003c0 f4 93 9e 3e 6b ae b9 3e 82 5d b1 3e 74 6c 0f 3f
       0.30972254 0.36265883 0.34641653 0.5602486
0003d0 29 cf 9c b8 bd a2 da 3e a8 f4 09 3c 1a a3 c0 b9
       -7.477246e-05 0.42702284 0.008420147 -0.00036742614
0003e0 f2 84 c7 3e 92 6a dd 3e 2a 59 e4 3e 1f ec 6f 3e
       0.38968617 0.4324537 0.44599277 0.23429917
0003f0 38 23 06 3f 8c ae ea 3e a2 08 cf 3d 8c de e8 3e
       0.5239749 0.45836294 0.101090685 0.4548229

encoder.2.bias f4 [256]
000000 b4 d2 92 bb 6e 4a e0 3a 81 f7 f1 38 e6 e8 51 b9
       -0.004480684 0.0017112026 0.00011537877 -0.00020018555
000010 9a 2e de 3b 3a 16 28 3c 0c 34 8f bb 0a ab de 39
       0.0067804577 0.0102592055 -0.004370218 0.00042470574
000020 d1 f5 66 bb e1 37 81 39 dc 45 e5 38 c6 90 29 b9
       -0.0035241733 0.0002464643 0.00010932583 -0.00016171028
000030 aa 8f c6 3b 55 03 fb b9 56 b3 7e 3a ae 0e e4 39
       0.0060596066 -0.00047876933 0.0009716054 0.00043498486
000040 f9 d6 1b 3c 20 ba 19 bb 9f 4e 84 ba 5b fe 43 3b
       0.009511703 -0.0023456886 -0.0010094232 0.0029906246
000050 0a 3e c9 bb 50 d2 ba b7 23 d5 f4 3b ca 43 2d 3b
       -0.006141429 -2.2270862e-05 0.007471697 0.002643811
000060 b4 26 a3 bb 09 f7 70 3b ff 02 74 bb 6f 84 e6 3a
       -0.004978979 0.0036768338 -0.003723323 0.0017587076
000070 80 3d 7f 3b 39 db 46 3b a6 7f 2f bb 03 41 2a 3a
       0.003894657 0.003034307 -0.0026778965 0.0006494673
000080 43 a9 dd 39 a8 95 25 bb f7 8a bd b9 c3 38 24 ba
       0.00042278515 -0.0025266204 -0.00036152426 -0.00062645617
000090 05 81 e9 38 5f 95 4b 3c 8d e0 01 bc 3e de cd 38
       0.000111343375 0.01242575 -0.007927072 9.8165576e-05
0000a0 05 06 0e bb ac f4 83 bb 02 e0 75 bb 85 38 a7 ba
       -0.0021671068 -0.00402697 -0.0037517552 -0.0012757933
0000b0 c2 cc e1 bb 0e 0a b3 bb d1 69 3f 39 fc 4f a9 3a
       -0.006890864 -0.005463845 0.00018254599 0.0012917514
0000c0 c3 d7 63 3a bc de ba bb 18 1f 11 3c 99 4a 76 bb
       0.0008691514 -0.0057028215 0.008857511 -0.0037581085
0000d0 0f 70 97 bb a2 34 af 3b 0b f1 80 ba 96 ae 78 b2
       -0.0046215127 0.0053468505 -0.0009837461 -1.4475196e-08
0000e0 5c e0 de ba 0b d2 d3 3b 9a 54 d8 3a 54 86 73 3b
       -0.001700412 0.006464248 0.0016504705 0.0037158923
0000f0 8c 8c cc 3b 15 fe 4a 3a 73 53 86 3a 7a 03 b0 3a
       0.0062423404 0.00077435496 0.0010248258 0.001342877
000100 e9 1b e2 bb c9 db be ba 80 54 77 3b b5 70 92 ba
       -0.0069003 -0.0014561351 0.0037739575 -0.0011172505
000110 04 6a 14 3a 64 a6 35 3a 04 d1 30 bb c1 35 4e bb
       0.00056615495 0.0006929396 -0.0026980052 -0.0031465145
000120 ba 4f 0f 3b d5 46 80 bb fb 70 82 3a d9 3d 93 bb
       0.002186759 -0.003914694 0.0009951884 -0.004493457
000130 1d 53 a9 ba 19 f0 6f ba 65 8f 60 3b 15 f4 82 3b
       -0.0012918446 -0.0009152904 0.0034265157 0.003996382
000140 98 ba 8f bb 16 34 a7 bb 34 64 30 bb f8 e5 17 3a
       -0.0043862574 -0.0051026447 -0.0026915194 0.0005794461
000150 33 a2 82 3a 04 63 b3 bb 35 90 12 bb 29 4a 56 3b
       0.0009966552 -0.00547445 -0.0022363786 0.0032698011
000160 b2 64 8e 3b 7f ed f6 39 11 f1 8f b5 a7 0e 7f 3a
       0.0043455 0.00047097725 -1.072449e-06 0.00097296614
000170 cb 79 a3 ba ff d0 d0 3b 71 ac 84 bb 79 d6 57 3c
       -0.001247221 0.0063725705 -0.004048877 0.013173693
000180 b4 f6 4f 3a 44 44 57 3b 10 0a 1b 3b 68 3b c0 b9
       0.0007933185 0.0032847086 0.002365712 -0.00036665355
000190 a5 1c 5d 3b 22 cc 83 bb 23 df 29 bc a9 58 e0 bb
       0.0033738997 -0.0040221373 -0.010368141 -0.0068465066
0001a0 5d 51 68 39 d3 67 4b bb a0 5e 2f 3c 7c 01 53 bb
       0.00022155554 -0.0031037226 0.010703713 -0.003219693
0001b0 cf 3c d3 bb 03 b1 e6 ba 49 2d b9 bb 90 78 9c 3b
       -0.006446458 -0.0017600361 -0.0056511504 0.0047751144
0001c0 57 e9 63 b9 c1 00 1d bb 24 8e 41 35 b2 d9 86 bb
       -0.00021735333 -0.0023956748 7.2104945e-07 -0.004115307
0001d0 33 09 61 ba d3 42 00 3b 5a a5 d3 3b 67 d1 a6 ba
       -0.00085844396 0.001957108 0.0064589204 -0.0012727202
0001e0 8e 71 df 3b 93 17 54 3b 5f 24 34 3a c8 a8 45 bb
       0.0068189567 0.0032362684 0.0006871875 -0.0030160416
0001f0 be 26 39 bc 4f 03 99 3b 9c 53 90 3b ed cd 74 3b
       -0.011300741 0.004669584 0.0044044983 0.0037354187
000200 1d ce 68 ba 15 4f 2f bb ec ce 55 36 51 4f 4e 3a
       -0.0008880811 -0.0026750017 3.1859918e-06 0.00078700954
000210 76 fc b9 3a 12 6c 39 b9 5e e6 14 bb 1a ab aa bb
       0.0014189619 -0.00017683234 -0.0022720317 -0.005208385
000220 db 6a a0 bb 2a d1 52 b3 a0 03 2b bb 8a 64 53 ba
       -0.0048955507 -4.908467e-08 -0.002609469 -0.0008063993
000230 6b 6a 31 bb 6f bb 66 bb 97 e8 c2 3b 4f f3 60 bb
       -0.0027071487 -0.0035206934 0.005948137 -0.003432471
000240 d9 2f 9b 39 e9 2f 0c 3c 25 a8 84 bb f6 36 04 3a
       0.00029599553 0.008556345 -0.0040483647 0.000504359
000250 a8 0e 69 b9 51 c2 a2 3b b0 b9 2f 3a 05 a9 41 3c
       -0.00022226071 0.004967012 0.000670339 0.011820083
000260 40 6f 64 bb ff fb 9d bb 7c 5b c2 3b 98 29 c0 ba
       -0.003485635 -0.0048213 0.005931316 -0.0014660833
000270 a5 76 a1 3b 8f a2 61 bb 87 05 c2 ba 67 0c 23 bb
       0.0049274736 -0.0034429168 -0.0014802673 -0.0024879219
000280 b0 86 d5 3a 6f 39 9c 3b e0 79 1e 3b 72 1f c2 39
       0.001629075 0.004767589 0.002418153 0.00037025992
000290 c0 cb 0d 3b df 0c 0b 3c 0c 34 c5 3b 59 51 aa 37
       0.0021636337 0.008486955 0.0060181674 2.030346e-05
0002a0 e4 71 a1 3a 27 60 4d 3b 15 63 59 b7 23 6c aa ba
       0.0012317267 0.003133783 -1.2957277e-05 -0.0013002198
0002b0 b1 ed 7e 3a 52 b5 5d 3b 6a 49 d6 ba 06 08 57 ba
       0.000972475 0.003383 -0.0016348783 -0.00082027947
0002c0 97 68 ff ba 5c 27 ee 39 13 b6 d9 3a 6d 5f 8d bb
       -0.0019486126 0.00045424222 0.0016610048 -0.004314354
0002d0 8c 36 87 3b 70 08 59 bb ad 85 ec bb 2c 4f 78 bb
       0.0041263755 -0.0033116601 -0.007218084 -0.0037888987
0002e0 a0 ca 0b 3c b1 4d 04 bb 5f 47 8d 3b e1 11 0f 3c
       0.008532196 -0.002018791 0.0043114866 0.00873229
0002f0 76 38 bd bb f6 00 e6 bb 3b c5 fa 3b 9b 1b 6f ba
       -0.005774553 -0.0070191575 0.0076529062 -0.000912124
000300 8f ca 99 3b e6 47 5b b9 a3 a2 3c bc 35 2d a8 ba
       0.0046933363 -0.00020912252 -0.011513385 -0.0012830856
000310 0f af 39 bb d2 b6 9c 3b e0 1b 54 39 09 e1 38 bb
       -0.0028333103 0.004782536 0.0002022828 -0.0028210303
000320 09 6f ac bb a2 0e 05 3c ea c7 e9 ba 54 23 6f ba
       -0.00526226 0.0081211645 -0.0017836068 -0.0009122391
000330 ee 26 67 ba 84 7d d2 b9 ad be cf b9 8d 22 11 3b
       -0.00088177517 -0.00040147838 -0.0003962418 0.0022145838
000340 a6 30 ca 3b 71 88 35 b6 4d d7 49 ba c4 17 a9 ba
       0.00617035 -2.705052e-06 -0.0007699624 -0.001290076
000350 66 c8 8f bb 7f eb d6 bb 47 50 ac 39 ee e3 4c bb
       -0.004387903 -0.006558835 0.00032866208 -0.0031263786
000360 a5 de 33 bb 58 be 3b 39 d4 97 75 ba c0 3b 42 ba
       -0.002744594 0.00017904618 -0.00093686325 -0.0007409416
000370 38 f0 c6 bb 6b d2 a2 ba e5 c3 f7 bb 21 36 05 3b
       -0.006071117 -0.0012422329 -0.0075611942 0.0020326453
000380 c0 20 27 3b 66 f7 a6 3b 3c 6a c3 bb 76 75 9b bb
       0.0025501698 0.00509541 -0.005963592 -0.004744227
000390 fb dd 74 ba fd 61 59 3b 26 ba d8 3b 59 33 40 3b
       -0.0009340939 0.0033169978 0.0066139875 0.002932748
0003a0 28 ef 1e 3b 14 3c 0c bc 9e 0e 08 3b c0 43 cd bb
       0.0024251435 -0.008559246 0.0020760666 -0.00626418
0003b0 4d 57 82 bb 20 90 c8 ba 25 e6 0b bc 24 c6 ad ba
       -0.003977692 -0.0015301742 -0.008538757 -0.0013257903
0003c0 be ca 1a ba 78 e7 00 bc 32 50 fe bb 52 f5 af bb
       -0.0005904845 -0.007867686 -0.007761025 -0.0053698206
0003d0 4e 49 91 b8 96 20 8e 3b 6a 15 94 bb 76 93 96 38
       -6.927793e-05 0.0043373806 -0.0045191543 7.180024e-05
0003e0 a2 ee c1 ba 11 e1 9c 3b 16 4e e0 ba f1 ab c6 ba
       -0.001479585 0.004787572 -0.0017113115 -0.0015157444
0003f0 bf 08 00 39 b5 e1 36 bb 00 c8 1d bb 24 14 1d 3c
       0.0001221029 -0.0027905528 -0.0024075508 0.009587321

encoder.4.weight f4 [256, 256]
000000 29 4b dd b9 92 b9 85 b9 38 b8 95 36 bf de 18 ba
       -0.00042208403 -0.00025505997 4.461992e-06 -0.00058315316
000010 33 20 4d 3a 7e fb 74 ba a3 d7 07 ba 74 59 6a 38
       0.00078249275 -0.00093453366 -0.00051819737 5.5873257e-05
000020 7f e3 e8 39 d5 90 ce ba ab 12 dc 36 c5 f4 be b7
       0.00044419986 -0.0015759716 6.558684e-06 -2.2763745e-05
000030 2b 9a cb ba 64 88 30 3b 82 bd 5f b9 ac 62 7f 37
       -0.0015533617 0.0026936764 -0.00021337534 1.5222158e-05
000040 73 6f 4c 3a 8a 34 9c 3a 4a 60 e2 b9 12 6a ca ba
       0.00077985896 0.0011917513 -0.0004317782 -0.0015442988
000050 93 49 ee 37 36 28 28 b5 1b 79 85 ba 40 95 8a 3a
       2.8406072e-05 -6.264339e-07 -0.0010183187 0.0010573044
000060 88 21 74 39 d9 1e 0c ba a0 a3 81 ba bb 02 de 3a
       0.00023282145 -0.0005345173 -0.0009890683 0.001693807
000070 28 cc e3 3a a0 00 9e 3a 70 83 9a b9 17 d7 27 3a
       0.0017379569 0.001205463 -0.00029471098 0.00064025953
000080 82 7a 8d 3b 17 2e 21 3a 8c 08 6e b7 cf d0 98 ba
       0.0043175826 0.00061485305 -1.4187895e-05 -0.001165891
000090 56 af 79 b9 0e ae f3 3a 7b ee c0 3a 62 61 57 3a
       -0.00023811808 0.0018591301 0.001471951 0.000821611
0000a0 b0 55 91 3a 1b c7 50 b9 d5 f5 3c bb 3c f0 5e b8
       0.0011088159 -0.00019910598 -0.002883305 -5.315266e-05
0000b0 ed b9 d3 39 bd d6 d2 39 b8 cc c8 b7 ae 26 08 bb
       0.00040383582 0.00040214314 -2.3937188e-05 -0.0020775008
0000c0 c8 cc 75 39 fd fa e3 b9 08 59 82 39 e5 22 46 38
       0.00023441308 -0.00043483815 0.00024861866 4.7239377e-05
0000d0 9f d1 f6 b8 a0 d9 e4 ba 59 43 00 3b 47 d8 9e b6
       -0.00011769239 -0.0017459877 0.0019571392 -4.733945e-06
0000e0 0f 94 0e 39 92 42 be 3a 21 5e b2 39 f2 7b f0 ba
       0.00013597331 0.0014515689 0.00034020937 -0.0018347485
0000f0 b3 7a 6b ba b6 23 f1 b9 4d 79 13 ba bb ad 2f b9
       -0.0008982822 -0.0004599371 -0.000562568 -0.0001675402
000100 9f c0 24 39 70 49 4a bb 17 e0 9a ba 31 85 24 ba
       0.00015712016 -0.0030866526 -0.0011816052 -0.00062759506
000110 3d 39 6f 37 ec 7c 6a ba 01 64 72 39 07 ff 28 ba
       1.4258837e-05 -0.00089450064 0.00023116173 -0.00064466934
000120 12 88 a3 ba 0c 90 e8 b7 93 92 0b 39 7c ea 15 3a
       -0.0012476465 -2.7723632e-05 0.00013310676 0.000571884
000130 40 5e 07 38 fb e7 38 3a 5c 8e 13 ba c4 68 5a b9
       3.2274285e-05 0.0007053611 -0.0005628818 -0.00020829128
000140 36 ac c4 b9 47 d6 ba ba 2c 48 2c 3a 00 a1 15 3b
       -0.0003751234 -0.0014254533 0.0006572034 0.002283156
000150 80 45 37 38 5c 74 50 bb d4 4e df ba 12 4a 72 ba
       4.3695327e-05 -0.0031807637 -0.0017037042 -0.0009242605
000160 b3 6d 54 ba 8d 9c 39 37 a3 3e 93 34 43 25 43 b7
       -0.00081035047 1.1063309e-05 2.7426458e-07 -1.1631581e-05
000170 55 da 25 b9 f8 91 80 3a 82 28 63 3a 61 2a 22 3b
       -0.00015816961 0.0009809127 0.0008665399 0.0024744498
000180 8e 3b b0 b9 55 85 7f b9 bc b4 71 3a 7b 2a 83 39
       -0.00033613708 -0.00024368365 0.0009220352 0.00025017918
000190 ef 70 4a 3b f8 b5 f6 37 5f d3 80 3a 5b 23 8b ba
       0.0030890068 2.9410221e-05 0.0009828618 -0.0010615395
0001a0 ae df bb 3a 40 2f 05 ba 38 e4 16 ba 2a fe 20 ba
       0.001433363 -0.0005080588 -0.0005756053 -0.0006141389
0001b0 e4 d6 e8 39 3c 83 e7 39 32 70 20 39 68 e7 78 3b
       0.00044410594 0.0004415753 0.00015300585 0.0037979726
0001c0 f9 b0 63 b9 25 b6 f3 38 a0 4e 0f b5 e9 9e b1 38
       -0.00021714334 0.0001162107 -5.3386066e-07 8.469617e-05
0001d0 6d 0d be 3b 31 6b a5 3a 81 f1 24 3a c2 7d 0b ba
       0.0057999403 0.0012620447 0.00062920904 -0.00053211686
0001e0 74 26 b8 b8 fc 00 a5 37 1e 68 e7 b8 9c 48 88 3a
       -8.780966e-05 1.9669991e-05 -0.00011034332 0.0010397616
0001f0 86 2b b4 ba e1 ee ed ba 90 b1 c8 3a 1d 03 b3 38
       -0.0013745881 -0.0018152857 0.0015311707 8.535965e-05
000200 ed 48 41 b8 39 3a 3b ba 29 d7 3e b4 65 df 87 b9
       -4.6082703e-05 -0.000714216 -1.7773404e-07 -0.00025915648
000210 36 ab b4 b8 e9 b8 a0 ba 4d d9 56 bb c0 8f c8 39
       -8.6149594e-05 -0.0012262139 -0.003278333 0.00038254075
000220 cc 20 32 bb 84 4b 42 b1 42 aa bf b9 6c b7 16 3a
       -0.0027180193 -2.8273641e-09 -0.0003655721 0.0005749378
000230 60 75 fb b8 f2 bb 24 b9 86 8b 68 39 9e a2 81 b8
       -0.000119904755 -0.00015710274 0.0002217722 -6.181489e-05
000240 c9 73 84 38 0c 78 9a 39 b2 ce b5 b9 aa ce fc b7
       6.315817e-05 0.0002946261 -0.0003467701 -3.0136976e-05
000250 b2 12 14 b7 9a f1 a6 b9 31 9c f2 b9 59 21 15 b9
       -8.82584e-06 -0.00031841994 -0.0004627421 -0.0001422217
000260 29 b6 3a 39 09 d2 97 ba bc 73 39 b8 b7 95 7d 39
       0.00017806202 -0.0011582981 -4.4215223e-05 0.00024183733
000270 0d b8 99 b8 39 a7 45 b9 a5 dd 08 38 96 64 31 3b
       -7.329891e-05 -0.0001884968 3.263135e-05 0.002706801
000280 b3 7b a8 39 54 20 12 38 4e 8c 20 ba 48 06 eb b8
       0.0003213562 3.483922e-05 -0.00061244227 -0.00011206843
000290 19 78 06 bb 1d b0 02 3a 80 be 51 3a a2 7a 90 35
       -0.002051836 0.00049853494 0.0008001104 1.0764527e-06
0002a0 2d 46 b7 b8 db f2 19 3a c9 e7 03 3b aa 3b e6 39
       -8.739191e-05 0.0005872675 0.0020127168 0.00043913472
0002b0 f2 aa d5 b9 65 bf 46 b8 7b 94 7f b8 7b 06 9a b7
       -0.0004075389 -4.738513e-05 -6.093502e-05 -1.8361248e-05
0002c0 d4 12 bf b9 82 80 92 b9 b9 a3 40 b9 da b1 28 37
       -0.00036444387 -0.00027943036 -0.00018371538 1.005499e-05
0002d0 92 62 88 b9 77 b9 fa b9 8a 86 6d ba 27 15 d5 ba
       -0.00026013382 -0.00047821898 -0.00090608804 -0.0016256914
0002e0 e8 e2 9c ba 9e 29 2f 39 e6 08 76 b9 18 56 88 b9
       -0.0011969479 0.00016704804 -0.00023463703 -0.00026004086
0002f0 54 5c 63 b9 73 12 b1 bb ae 36 c9 3a bb 94 bd b9
       -0.00021682802 -0.0054038106 0.0015351379 -0.00036159702
000300 f6 28 8d 3a 46 a3 7b ba b6 e0 23 bb 1e 8f 79 b8
       0.0010769654 -0.000959922 -0.0025005764 -5.9499514e-05
000310 15 d1 92 3a 4e 2f 45 3a 02 26 d7 36 2c b8 ff 3a
       0.0011201227 0.00075220026 6.411924e-06 0.0019509844
000320 e8 8a ae ba f1 cd 14 3b 93 31 a6 39 23 1a 3f bb
       -0.0013316544 0.0022705758 0.00031698923 -0.0029159866
000330 f1 6a 2e 3a 72 7b 66 b7 f6 f6 25 ba 43 27 0d ba
       0.0006653509 -1.373781e-05 -0.00063310505 -0.00053845736
000340 bc b3 2c 3a 0d ea 0f b4 d1 22 24 ba 58 cd 68 39
       0.0006588062 -1.340306e-07 -0.00062612916 0.0002220174
000350 d0 c9 b9 b9 5d 4e a0 bb fb 33 03 37 c0 06 3d 3a
       -0.00035436312 -0.004892154 7.820311e-06 0.00072107837
000360 a5 4e a7 ba 23 ed 57 37 6b 45 5b 38 ff 98 c5 39
       -0.0012764527 1.2870211e-05 5.227832e-05 0.0003768876
000370 9c e1 00 bb f3 b0 78 39 42 ac 8c b9 1b 4d ed b9
       -0.0019665724 0.00023717042 -0.00026831223 -0.0004526161
000380 4d 43 ef b9 71 91 d9 39 52 2b 21 bb 80 ea fd 3a
       -0.00045635775 0.00041497828 -0.0024592471 0.0019372255
000390 ca 12 95 ba 79 21 bd 3a b8 3c 16 ba 07 73 c8 3a
       -0.0011373397 0.0014429531 -0.00057310937 0.001529307
0003a0 12 54 84 39 25 37 d7 39 e0 85 01 ba cb 49 ca 38
       0.0002523964 0.00041049081 -0.00049409084 9.6458556e-05
0003b0 5b d6 08 b6 4f 18 93 b9 28 bb 0c 38 65 47 c8 39
       -2.039035e-06 -0.00028056136 3.3552904e-05 0.00038200166
0003c0 83 a0 85 ba 34 53 67 3b 39 67 82 3a 1e d8 06 bb
       -0.0010194931 0.0035297396 0.0009948976 -0.0020575593
0003d0 76 99 99 b6 bd f2 0c 3a cf a4 39 39 26 d3 0a 37
       -4.5776205e-06 0.0005376747 0.00017704371 8.274603e-06
0003e0 20 bb f3 b9 df 67 70 3b ad e0 66 3a 44 b2 90 ba
       -0.0004648799 0.0036683006 0.0008807283 -0.0011039455
0003f0 84 7a 1e 39 e8 6c 15 3a a3 06 a3 b9 6c 51 16 ba
       0.00015113695 0.0005700127 -0.00031094727 -0.00057341787

encoder.4.bias f4 [256]
000000 14 11 e7 ba 0a 8b 46 3d 55 30 8b bb a9 ab 16 3a
       -0.0017628991 0.04847244 -0.004247705 0.0005747625
000010 77 5f 42 b9 f4 b9 82 3a f5 1d d8 bc f0 3b f0 3a
       -0.00018536845 0.0009973631 -0.026381472 0.001832841
000020 9d 2f 80 3c 5e 88 ad 3c 5e 93 e1 3b de 1d 10 bc
       0.015647704 0.021183189 0.0068840226 -0.008796183
000030 dc a5 98 bc 54 e6 4a 3c f7 74 9e 3c 93 c7 8f 3a
       -0.018633775 0.012384016 0.019342883 0.0010969512
000040 14 91 c2 3c 34 6c 2f 3b f5 2c 1b 3c c5 d7 3f 3c
       0.02375082 0.0026767375 0.009471168 0.011709158
000050 9a ce bf 3a 1c db 69 bc 66 05 37 3c 16 81 5c 3b
       0.0014633716 -0.014273431 0.011170721 0.0033646277
000060 13 b6 85 bc cf 3a 27 3c 14 2b a1 3a 49 cc 0e 3c
       -0.016322171 0.010206892 0.0012296163 0.008715698
000070 b2 05 df 3a 1d c1 5b 3a 7b fa e5 3a f5 db 03 3d
       0.0017015247 0.0008382963 0.0017545962 0.03219219
000080 88 c3 a6 b9 b9 1a a8 3c 79 e4 89 3a ee 01 88 3c
       -0.0003180767 0.020520555 0.0010520361 0.016602483
000090 26 46 8e bb ff ef fe 3a f5 74 d2 3a dc 4c b8 3c
       -0.0043418584 0.0019450187 0.0016056584 0.022497587
0000a0 85 d1 d3 3a 72 97 ca 3a b5 57 97 3c 06 30 66 bc
       0.0016160464 0.0015456511 0.01847444 -0.014049536
0000b0 f3 ac d3 39 06 50 21 3b 6a 19 fa 3a ca 32 f5 3b
       0.00040373913 0.0024614348 0.001908106 0.007482861
0000c0 21 f6 4b bd 1a 0d 38 3d 55 5c af bc 75 59 23 bb
       -0.049795274 0.04493437 -0.021406332 -0.0024925147
0000d0 68 d8 ee 3a 76 31 a2 bc 7e 13 19 bc 37 4c df bc
       0.0018222453 -0.019798975 -0.009343026 -0.027258022
0000e0 9b 75 16 3d af 91 bf bc eb 0e 56 bc 0e 70 9a bb
       0.03673325 -0.023384897 -0.01306508 -0.004713065
0000f0 9b 22 60 3b be 10 64 3a 40 92 cc bc 41 ab 04 3b
       0.0034200314 0.00087000045 -0.024972081 0.0020243677
000100 07 96 df 3c c1 b6 20 bb 5e c8 b4 3a 5e 78 7a 3b
       0.027293218 -0.0024522992 0.0013792624 0.0038218717
000110 c0 23 86 3b 97 b3 3a 3c 66 e6 24 3b 6a 43 d8 3a
       0.004093617 0.011395357 0.0025161742 0.0016499583
000120 ff 94 b1 3a ed f0 c5 3c a5 42 ac 3b 2c 1e 81 3b
       0.0013548433 0.024162734 0.005256968 0.0039403643
000130 a1 c2 52 3c 79 8d 26 bb 87 35 10 3c 35 c5 9a bc
       0.012863786 -0.0025413914 0.008801824 -0.018892864
000140 36 83 93 3c d1 c3 8c bc a4 bc 06 bd aa 5c 19 3b
       0.018006902 -0.017183216 -0.032894745 0.002340118
000150 38 e3 e9 b9 ac 5f e5 3a 77 e9 2d 3a 64 fa 15 3b
       -0.00044610514 0.0017499826 0.0006634215 0.002288484
000160 20 7b bf 3a c0 aa 3b bb bc fb 45 3b 51 04 93 3b
       0.0014608838 -0.002863571 0.003020986 0.0044865985
000170 52 65 74 3c 04 a8 e3 3c 9d 33 16 bc 8a 1a 30 bc
       0.014916735 0.027790077 -0.009167579 -0.010748515
000180 e9 8a 6c 3b 5e 8b 27 bd 71 d3 fe 3c 22 42 e6 3b
       0.003609354 -0.040904395 0.031106682 0.0070269266
000190 29 75 a9 3a 25 e6 49 bb e1 1f 94 3a cd 7d 8b 3a
       0.0012928593 -0.0030807343 0.0011301005 0.001064235
0001a0 ef 25 45 39 ff 1b b2 bc bd dc 96 bc c8 b3 07 bd
       0.00018801515 -0.021741865 -0.018415803 -0.033130437
0001b0 49 08 f0 3a 3b 0a aa 3a d7 d7 c0 bc 8f d2 eb 3a
       0.0018313016 0.001297302 -0.02354042 0.0017991828
0001c0 90 cf d8 bc 46 88 3b 3c ee bc c4 bc a5 0b df 3c
       -0.026466161 0.011446064 -0.02401587 0.027227232
0001d0 8e 41 de ba e5 7e 4d ba 6f b8 9d 3a a9 9e d7 3b
       -0.0016956793 -0.0007839038 0.0012033115 0.006580193
0001e0 c4 7a 4e bb bf 43 f1 3a cd 41 ea 3a 36 b3 7d bc
       -0.003150628 0.0018407031 0.0017872393 -0.015484622
0001f0 8e 8d 9f 3a 33 6f 16 3d f8 41 41 3b 57 35 a6 3a
       0.0012172924 0.03672714 0.0029488783 0.0012680691
000200 ae 31 ba bb c2 6a a7 bb 22 8a 31 3a 13 81 12 bc
       -0.005682192 -0.005109162 0.00067725976 -0.0089419065
000210 ce 26 8e 3a 52 42 9b 3c 66 e4 ff ba 32 c6 d9 3a
       0.0010845305 0.018952522 -0.0019523024 0.0016614853
000220 e4 3f f9 bc d1 10 40 3b 85 c4 fe ba c3 f9 d5 3c
       -0.030425973 0.0029306898 -0.001943723 0.026120072
000230 7a 02 04 3d ca 6b 40 3b 2d 3b 4f bc 23 63 f4 3c
       0.032228924 0.0029361122 -0.012648386 0.029832428
000240 a9 0c db ba 24 38 bc bc 71 8a 79 bb 9c 93 f2 3b
       -0.0016712147 -0.022975989 -0.0038076902 0.0074028503
000250 13 bb 9a bb fa f0 5e 3b 4d 39 53 3c 74 c7 32 3b
       -0.004722008 0.0034018145 0.01289208 0.0027279528
000260 99 c4 19 bc a8 2a 40 3c 7f 0f 37 39 00 27 e5 ba
       -0.009385251 0.01172892 0.00017458013 -0.0017482936
000270 88 a4 b5 bc e8 85 0f bb 7a e4 d6 3c 7a fc 48 3b
       -0.022173181 -0.0021899883 0.026231993 0.0030668066
000280 51 0c dd 3a 30 e7 d0 3a 1b a2 c8 3b 2b 5f cd bc
       0.0016864632 0.001593804 0.00612284 -0.025069794
000290 f9 77 2b 3c 48 3a 07 3b 14 9d 1b bd c1 9c a7 3c
       0.010465615 0.0020634104 -0.0379916 0.020460488
0002a0 4e 66 9c bb 62 50 ee 3b 08 f4 64 3a bc 73 9a bc
       -0.004772938 0.007272766 0.0008733873 -0.018854015
0002b0 25 f6 d4 3b b6 5a 82 3b 5f bf cd 3a b3 70 07 3b
       0.0064990693 0.0039780987 0.0015697292 0.002066654
0002c0 0b 68 04 3b 88 c8 9b 3c c8 37 cf 3a dc f1 91 39
       0.0020203616 0.01901652 0.0015809471 0.00027836754
0002d0 a0 02 fe 3a 06 ad 18 3a 94 71 ad bc 36 f7 92 bc
       0.0019379444 0.00058241223 -0.021172322 -0.017940145
0002e0 ac 4e 6d 3a e8 e2 0d bd 59 d1 08 ba 74 87 4f 3b
       0.00090525555 -0.034640223 -0.00052191835 0.003166643
0002f0 db 44 22 bb 54 33 ef 3a 7e 94 e2 bb c3 84 20 3b
       -0.002476028 0.001824955 -0.0069146743 0.0024493195
000300 1c e6 00 3b b8 75 ba 3a 41 ae 07 3b 25 ec 89 3a
       0.0019668406 0.0014225757 0.0020703229 0.0010522647
000310 91 bf 86 ba 7e 89 de 3b 82 91 7d bc 9f 79 64 bc
       -0.001028048 0.0067912927 -0.015476586 -0.013945012
000320 a2 8b 63 bc de 13 8b 3b 7d 8c 56 bc 88 ac 75 3c
       -0.0138882715 0.0042443117 -0.013095018 0.014994748
000330 44 9d 49 bd 7c 88 e5 3a 0c dd f6 b9 30 7c 4b bb
       -0.049222246 0.0017511989 -0.0004708547 -0.0031049363
000340 18 1b 9e bb e8 c2 c2 3a 9d 02 5e 3a fe c9 1f bd
       -0.004825007 0.0014859112 0.00084690173 -0.039010994
000350 f1 3e c8 bc a0 25 68 3b a2 33 81 3c 7b 73 8b 3a
       -0.024444075 0.0035422817 0.01577169 0.0010639274
000360 14 2b e7 3a 51 89 39 bc 8d 46 12 bd 31 e7 14 bb
       0.001763674 -0.011324243 -0.035711814 -0.0022720809
000370 96 e9 d6 bc 33 1c 95 bc 14 79 21 3b 9a 69 3c bc
       -0.02623443 -0.018201923 0.0024638819 -0.011499787
000380 88 27 25 3c 4f e8 69 bb 64 d3 05 3b 6e 0e 1f bb
       0.010080226 -0.0035691445 0.0020420188 -0.0024270075
000390 08 79 70 bc dc 03 0a 3c 74 48 03 3b 25 d6 e9 bb
       -0.014677294 0.008423772 0.00200322 -0.0071361237
0003a0 1b 91 48 bc a8 ed 1c 3b e4 3a 91 bc cd e2 dd 3a
       -0.012241627 0.0023945365 -0.017728277 0.0016928554
0003b0 26 fc ba 3c 2a 24 2a 3a 05 08 da bc bd ac e4 3a
       0.022825312 0.0006490374 -0.026615152 0.00174465
0003c0 a1 48 5e bc 5f 27 e3 3c c8 b3 14 3b f4 65 5a 3b
       -0.013567121 0.027728735 0.0022690166 0.003332493
0003d0 04 af 12 bb 8f ea ee ba bd 26 0e ba 2e 4e 19 3d
       -0.002238215 -0.0018227863 -0.00054226426 0.037428074
0003e0 a4 8d 31 bc 8f 25 87 3c c8 ec 2a bb 5f e2 6f ba
       -0.010836992 0.016497402 -0.0026081074 -0.00091508584
0003f0 a5 3f 6f bc 51 6f f0 bb 1f cf 8d 3b 87 6d 86 39
       -0.014602576 -0.0073374887 0.0043276693 0.00025640076
